results/mlm_model.pth (torch, 871131 bytes, 20 tensors)

embedding.weight f4 [44, 128]
1.4720514 -0.7240318 -2.1014285 -2.5616984 0.056505654 -0.52206707 1.6274796 -0.8823962
-0.31368744 0.07602379 -1.5892755 1.5493078 -0.3335525 -2.1287603 2.3999789 -0.23732287
-0.15843253 -0.037013166 0.7065354 -1.7295183 1.1275208 -0.96184695 0.17793295 -1.2533957
-0.64081943 0.5207647 -0.099800766 -0.32282072 -1.5400207 1.2281183 -0.44542772 -0.5571465
0.8742574 1.3739932 -0.9199956 0.665415 0.22291893 0.18511122 -0.0053801103 1.0665728
0.88205576 0.60997057 0.87717146 0.8172292 -1.9345374 1.3757398 0.056022927 -0.108661644
-1.8625495 -1.3483703 -1.678908 0.40229523 0.30744097 -0.26465508 0.39378136 -1.8233385
0.14892727 -0.32807845 1.3715862 0.5411034 0.567542 2.1238558 0.036721148 0.47692785
-0.52388513 1.4236288 -0.9619553 0.2071923 -1.4982818 0.6978601 -1.6584947 -1.1065403
0.4979516 -0.42426616 1.1695446 0.85477185 0.20107597 -0.49081647 -0.4640254 -1.4050592
0.3860759 -1.8089054 -0.12326594 0.8074048 1.4751832 0.37020972 0.5964723 -1.6096331
0.06764367 -1.059876 0.61266446 0.34439483 0.69627166 -0.56756926 -0.89295256 -1.2242938
-1.0109917 -0.09281043 -0.58557194 1.3769574 0.5152131 -0.18740964 -0.24833395 0.041456226
0.2810749 0.64169604 0.20496477 -0.027665384 -0.21175943 0.13811775 -0.006635496 -1.6130804
0.28291073 -1.0307083 1.0308117 2.6377227 0.9472849 0.81348443 0.7943244 0.5204528
-0.46966353 0.88203794 -1.1659701 0.656144 0.7218076 0.25901735 -0.6547679 -0.2521777
-0.04297395 0.06270211 -1.8280019 -0.979577 0.6959745 -0.667477 0.11243251 -0.8232639
0.9508319 0.7917458 -0.06788428 0.68117964 -0.85789734 -0.7640854 -0.52104795 0.017873164
1.736767 -1.0880972 0.45124158 0.78725475 1.0418429 0.7720539 2.6146553 0.39036274
-0.9645747 -0.93325514 -1.3544168 -2.0543752 -0.4657316 0.30043805 0.2387603 -0.9253807
-0.18146391 -1.53059 1.6106158 -0.75997186 -0.449776 1.1163447 -0.5150879 -0.71918976
0.8555399 -1.0467848 -0.15527377 1.0068616 0.4149052 -0.6664677 0.5178235 0.83737826
-0.048699662 -1.446278 0.9711692 -2.3661504 1.7374003 1.5126657 0.074226245 -0.56430775
0.51810104 -0.8972925 0.11754655 0.82383925 -0.9904919 0.61768186 -0.35264477 -1.1657645
1.2118394 0.92361164 -0.22093107 0.21650922 0.2826626 -0.33120337 0.008458867 -0.29241312
0.9069764 0.3020692 -1.0929034 -0.67423284 0.03078845 0.3610264 0.101976275 -0.45073244
0.42077965 1.1455438 0.7750056 -0.1086387 0.51607335 0.7634748 -0.8240345 -1.5149436
0.15608244 0.8289508 0.64894634 1.0045149 -0.37939245 -1.7921425 -1.3086098 0.7574292
0.07858654 1.9782612 -1.7530252 1.1120836 1.3830632 -0.5427547 1.2167988 -0.028685497
0.4932229 -1.4623379 1.2815188 -0.09562859 2.3178282 -0.37226236 -1.2759191 0.5166769
-0.5414608 -0.35438105 1.0737619 1.1136475 1.1083184 -0.7841098 -0.45074746 -0.15817957
-1.6480918 -1.1677927 0.22775717 -0.61039037 -1.3126168 0.42337173 0.19067793 -0.58385205
00000000: 2e6c bc3f 265a 39bf ce7d 06c0 def2 23c0
00000010: 7972 673d 30a6 05bf 4051 d03f b8e4 61bf
00000020: a49b a0be 5cb2 9b3d 616d cbbf b84f c63f
00000030: 65c7 aabe 9c3d 08c0 4199 1940 c404 73be
00000040: 233c 22be 1e9b 17bd 81df 343f db60 ddbf
00000050: 9a52 903f 9a3b 76bf 0e34 363e 456f a0bf
00000060: be0c 24bf d650 053f 5864 ccbd c248 a5be
00000070: 661f c5bf fb32 9d3f 1a0f e4be 27a1 0ebf
00000080: 55cf 5f3f 02df af3f d584 6bbf a358 2a3f
00000090: dc44 643e cc8d 3d3e a34b b0bb 7585 883f
000000a0: 68ce 613f 0827 1c3f 4f8e 603f ef35 513f
000000b0: ec9e f7bf 3e18 b03f 4c78 653d ff89 debd
000000c0: 0668 eebf 6697 acbf 75e6 d6bf a4f9 cd3e
000000d0: e768 9d3e df80 87be b69d c93e 2863 e9bf
000000e0: 6480 183e e6f9 a7be 2390 af3f c185 0a3f
000000f0: 6f4a 113f 41ed 0740 ea68 163d e32f f43e
00000100: 561d 06bf 7839 b63f b442 76bf 382a 543e
00000110: b3c7 bfbf f6a6 323f 8e49 d4bf 1da3 8dbf
00000120: 83f3 fe3e 6a39 d9be a3b3 953f 54d2 5a3f
00000130: dce6 4d3e 4c4c fbbe bd94 edbe fbd8 b3bf
00000140: beab c53e 368a e7bf da72 fcbd 15b2 4e3f
00000150: ced2 bc3f 218c bd3e 69b2 183f 7508 cebf
00000160: c488 8a3d 04aa 87bf 94d7 1c3f 8554 b03e
00000170: dc3e 323f 384c 11bf 8a98 64bf a9b5 9cbf
00000180: 2d68 81bf 6513 bebd 0be8 15bf 2440 b03f
00000190: 01e5 033f 50e8 3fbe 414b 7ebe 01ce 293d
000001a0: 0de9 8f3e 3146 243f 49e2 513e 84a2 e2bc
000001b0: 77d7 58be bd6e 0d3e 936e d9bb 6b79 cebf
000001c0: add9 903e 40ee 83bf a3f1 833f 73d0 2840
000001d0: 4381 723f 8440 503f d858 4b3f 653c 053f
000001e0: bd77 f0be 3dcd 613f 823e 95bf 0ef9 273f
000001f0: 62c8 383f ec9d 843e de9e 27bf 6f1d 81be
00000200: 7405 30bd f769 803d f7fb e9bf 8fc5 7abf
00000210: 632b 323f c6df 2abf 0443 e63d 6cc1 52bf
00000220: b869 733f daaf 4a3f ea06 8bbd ca61 2e3f
00000230: 299f 5bbf 1a9b 43bf 6663 05bf be6a 923c
00000240: 624e de3f c546 8bbf 2309 e73e 8789 493f
00000250: 1c5b 853f 53a5 453f 8356 2740 a0dd c73e
00000260: 5eee 76bf cfe9 6ebf 885d adbf e27a 03c0
00000270: 5f74 eebe 04d3 993e 957d 743e c0e5 6cbf
00000280: add1 39be 60ea c3bf a928 ce3f 848d 42bf
00000290: 0a49 e6be 62e4 8e3f cddc 03bf d21c 38bf
000002a0: aa04 5b3f 0bfd 85bf 1600 1fbe d7e0 803f
000002b0: 746e d43e a19d 2abf 1590 043f 6c5e 563f
000002c0: 4c79 47bd a31f b9bf 8b9e 783f 026f 17c0
000002d0: 2263 de3f 089f c13f ee03 983d 7976 10bf
000002e0: 45a2 043f f6b4 65bf 3fbc f03d 21e7 523f
000002f0: e190 7dbf 6620 1e3f db8d b4be c537 95bf
00000300: 8e1d 9b3f d071 6c3f c13b 62be 98b4 5d3e
00000310: 27b9 903e 7d93 a9be 0f97 0a3c 2cb7 95be
00000320: 9b2f 683f d0a8 9a3e 42e4 8bbf 869a 2cbf
00000330: 0f38 fc3c 74d8 b83e f0d8 d03d 67c6 e6be
00000340: 6e70 d73e 2ea1 923f c466 463f f77d debd
00000350: 621d 043f 1673 433f edf3 52bf ace9 c1bf
00000360: 13d4 1f3e 1f36 543f 5921 263f f293 803f
00000370: ba3f c2be ed64 e5bf 8780 a7bf e1e6 413f
00000380: fbf1 a03d aa37 fd3f 2163 e0bf c158 8e3f
00000390: 3708 b13f f9f1 0abf 10c0 9b3f d9fd eabc
000003a0: b687 fc3e e32d bbbf cf08 a43f ecd8 c3bd
000003b0: 4c57 1440 2c99 bebe 5151 a3bf f044 043f
000003c0: 2d9d 0abf 6f71 b5be 0871 893f 008c 8e3f
000003d0: 61dd 8d3f 6bbb 48bf 5fc8 e6be d3f9 21be
000003e0: acf4 d2bf 3b7a 95bf 2d39 693e 8b42 1cbf
000003f0: d403 a8bf 2ec4 d83e 1341 433e 5477 15bf

pos_encoder.pe f4 [1, 50, 128]
0.0 1.0 0.0 1.0 0.0 1.0 0.0 1.0
0.0 1.0 0.0 1.0 0.0 1.0 0.0 1.0
0.0 1.0 0.0 1.0 0.0 1.0 0.0 1.0
0.0 1.0 0.0 1.0 0.0 1.0 0.0 1.0
0.0 1.0 0.0 1.0 0.0 1.0 0.0 1.0
0.0 1.0 0.0 1.0 0.0 1.0 0.0 1.0
0.0 1.0 0.0 1.0 0.0 1.0 0.0 1.0
0.0 1.0 0.0 1.0 0.0 1.0 0.0 1.0
0.0 1.0 0.0 1.0 0.0 1.0 0.0 1.0
0.0 1.0 0.0 1.0 0.0 1.0 0.0 1.0
0.0 1.0 0.0 1.0 0.0 1.0 0.0 1.0
0.0 1.0 0.0 1.0 0.0 1.0 0.0 1.0
0.0 1.0 0.0 1.0 0.0 1.0 0.0 1.0
0.0 1.0 0.0 1.0 0.0 1.0 0.0 1.0
0.0 1.0 0.0 1.0 0.0 1.0 0.0 1.0
0.0 1.0 0.0 1.0 0.0 1.0 0.0 1.0
0.84147096 0.54030234 0.7617204 0.6479058 0.68156135 0.731761 0.604694 0.7964579
0.53316844 0.8460091 0.46794805 0.883756 0.4093089 0.9123959 0.35711196 0.9340616
0.3109836 0.9504153 0.2704322 0.96273905 0.23492105 0.9720145 0.20391227 0.9789892
0.17689219 0.9842302 0.15338473 0.9881666 0.13295726 0.99112177 0.11522171 0.9933398
0.099833414 0.9950042 0.08648824 0.9962529 0.07491915 0.9971896 0.06489253 0.99789226
0.05620449 0.9984193 0.04867751 0.9988145 0.04215715 0.999111 0.036509294 0.9993333
0.031617504 0.99950004 0.027380772 0.9996251 0.023711512 0.99971884 0.020533804 0.9997892
0.017781857 0.99984187 0.015398654 0.99988145 0.013334819 0.99991107 0.01154756 0.9999333
0.009999833 0.99995 0.008659536 0.9999625 0.0074988706 0.99997187 0.006493771 0.9999789
0.0056233825 0.9999842 0.004869656 0.99998814 0.0042169513 0.9999911 0.0036517328 0.9999933
0.0031622713 0.999995 0.0027384157 0.99999624 0.0023713715 0.9999972 0.0020535232 0.9999979
0.0017782785 0.99999845 0.0015399256 0.9999988 0.001333521 0.9999991 0.0011547814 0.99999934
0.0009999998 0.9999995 0.00086596434 0.99999964 0.000749894 0.9999997 0.0006493816 0.9999998
0.0005623411 0.9999998 0.00048696747 0.9999999 0.00042169637 0.99999994 0.0003651741 0.99999994
0.00031622782 0.99999994 0.00027384204 0.99999994 0.00023713727 1.0 0.00020535247 1.0
0.00017782794 1.0 0.00015399269 1.0 0.00013335208 1.0 0.00011547816 1.0
00000000: 0000 0000 0000 803f 0000 0000 0000 803f
00000010: 0000 0000 0000 803f 0000 0000 0000 803f
00000020: 0000 0000 0000 803f 0000 0000 0000 803f
00000030: 0000 0000 0000 803f 0000 0000 0000 803f
00000040: 0000 0000 0000 803f 0000 0000 0000 803f
00000050: 0000 0000 0000 803f 0000 0000 0000 803f
00000060: 0000 0000 0000 803f 0000 0000 0000 803f
00000070: 0000 0000 0000 803f 0000 0000 0000 803f
00000080: 0000 0000 0000 803f 0000 0000 0000 803f
00000090: 0000 0000 0000 803f 0000 0000 0000 803f
000000a0: 0000 0000 0000 803f 0000 0000 0000 803f
000000b0: 0000 0000 0000 803f 0000 0000 0000 803f
000000c0: 0000 0000 0000 803f 0000 0000 0000 803f
000000d0: 0000 0000 0000 803f 0000 0000 0000 803f
000000e0: 0000 0000 0000 803f 0000 0000 0000 803f
000000f0: 0000 0000 0000 803f 0000 0000 0000 803f
00000100: 0000 0000 0000 803f 0000 0000 0000 803f
00000110: 0000 0000 0000 803f 0000 0000 0000 803f
00000120: 0000 0000 0000 803f 0000 0000 0000 803f
00000130: 0000 0000 0000 803f 0000 0000 0000 803f
00000140: 0000 0000 0000 803f 0000 0000 0000 803f
00000150: 0000 0000 0000 803f 0000 0000 0000 803f
00000160: 0000 0000 0000 803f 0000 0000 0000 803f
00000170: 0000 0000 0000 803f 0000 0000 0000 803f
00000180: 0000 0000 0000 803f 0000 0000 0000 803f
00000190: 0000 0000 0000 803f 0000 0000 0000 803f
000001a0: 0000 0000 0000 803f 0000 0000 0000 803f
000001b0: 0000 0000 0000 803f 0000 0000 0000 803f
000001c0: 0000 0000 0000 803f 0000 0000 0000 803f
000001d0: 0000 0000 0000 803f 0000 0000 0000 803f
000001e0: 0000 0000 0000 803f 0000 0000 0000 803f
000001f0: 0000 0000 0000 803f 0000 0000 0000 803f
00000200: a46a 573f 4151 0a3f 1c00 433f 28dd 253f
00000210: ce7a 2e3f b054 3b3f 3acd 1a3f aae4 4b3f
00000220: ba7d 083f 0d94 583f e396 ef3e d53d 623f
00000230: f090 d13e c792 693f 61d7 b63e a91e 6f3f
00000240: 3e39 9f3e 6b4e 733f 1776 8a3e 1176 763f
00000250: 258f 703e f1d5 783f 61ce 503e 099f 7a3f
00000260: 3a23 353e 83f6 7b3f e310 1d3e 7cf8 7c3f
00000270: f325 083e 28ba 7d3f 5cf9 eb3d 844b 7e3f
00000280: 7675 cc3d 98b8 7e3f bf20 b13d 6e0a 7f3f
00000290: 366f 993d d147 7f3f 60e6 843d de75 7f3f
000002a0: ae36 663d 6898 7f3f 1262 473d 4fb2 7f3f
000002b0: faac 2c3d bdc5 7f3f c58a 153d 4fd4 7f3f
000002c0: 5b81 013d 3cdf 7f3f a44d e03c 6ee7 7f3f
000002d0: a53e c23c 93ed 7f3f 8236 a83c 2ff2 7f3f
000002e0: 42ab 913c a3f5 7f3f a34a 7c3c 3bf8 7f3f
000002f0: 497a 5a3c 2cfa 7f3f fa31 3d3c a1fb 7f3f
00000300: 57d6 233c b9fc 7f3f bae0 0d3c 8bfd 7f3f
00000310: 16b9 f53b 28fe 7f3f b3c9 d43b 9efe 7f3f
00000320: 5a44 b83b f7fe 7f3f a391 9f3b 39ff 7f3f
00000330: 5a2e 8a3b 6bff 7f3f e951 6f3b 90ff 7f3f
00000340: 1c3e 4f3b acff 7f3f fe76 333b c1ff 7f3f
00000350: 0369 1b3b d1ff 7f3f 6794 063b ddff 7f3f
00000360: 2015 e93a e6ff 7f3f 54d7 c93a ecff 7f3f
00000370: 8ac9 ae3a f1ff 7f3f 095c 973a f5ff 7f3f
00000380: 6d12 833a f8ff 7f3f e201 633a faff 7f3f
00000390: 8994 443a fbff 7f3f 433b 2a3a fdff 7f3f
000003a0: 136a 133a fdff 7f3f ab4f ff39 feff 7f3f
000003b0: 2117 dd39 ffff 7f3f d774 bf39 ffff 7f3f
000003c0: 61cb a539 ffff 7f3f 7592 8f39 ffff 7f3f
000003d0: 0da8 7839 0000 803f e253 5739 0000 803f
000003e0: 5377 3a39 0000 803f 1979 2139 0000 803f
000003f0: 6dd4 0b39 0000 803f dd2c f238 0000 803f

encoder.attn.q_linear.weight f4 [128, 128]
-0.04627548 -0.101402946 -0.021260533 0.07983975 -0.043830216 -0.019483237 -0.008207206 0.08759768
-0.08435742 -0.03542885 -0.09187782 0.071982615 0.0032848073 0.031078983 0.004023952 -0.08018871
-0.034704145 -0.028929815 -0.043192323 -0.041930515 0.039551415 -0.10010376 -0.015909843 0.014625349
-0.06684406 0.03162517 -0.012037974 -0.015193609 0.006926444 -0.007195469 0.049738675 0.013046083
0.06583382 -0.038774356 0.05627087 -0.0004022372 -0.028804878 -0.00818684 -0.027056804 0.019408515
-0.029420437 0.08480853 0.040813405 -0.026503911 -0.061903033 -0.060415696 -0.02292014 0.027717192
-0.071733244 0.0018948145 0.08074007 -0.051345352 0.013845008 -0.051054645 0.04930935 0.059079055
0.011418775 -0.085303925 -0.10723772 -0.07868178 0.10045877 0.06492091 0.027666098 0.055477507
0.0053150025 0.059716217 -0.010549364 -0.06682497 -0.07514149 -0.07378545 -0.044796817 0.06750596
0.10470574 0.0703114 -0.013832 0.0148038985 -0.035488106 -0.013927021 0.058167804 -0.031752564
0.041520588 0.024601901 0.020837648 0.017156666 0.019316286 -0.08554015 -0.04723921 0.07081171
0.059016515 0.03522309 0.062596746 -0.08995582 -0.013437234 -0.058665346 0.010775384 -0.06931358
0.020480208 -0.021606324 -0.06437198 0.05916408 0.04474251 -0.06533992 -0.0031342937 0.06760069
-0.049757488 -0.027230693 0.035573285 0.052727588 0.030762559 -0.04649836 0.05781705 -0.03695664
-0.002151577 -0.082849674 0.079998896 -0.09469736 -0.01754253 -0.08438528 -0.025505964 -0.029861998
-0.079398654 0.029636558 -0.03751955 -0.036350396 0.046204675 0.002255939 0.09713904 -0.011825112
0.07256806 0.01843635 0.07820659 0.041208472 0.012784672 0.023485389 0.0017363874 0.030280719
-0.07223077 -0.083793186 -0.011479489 -0.069929235 -0.0033357644 -0.02479163 -0.014911394 -0.06106644
-0.032305982 0.049758486 -0.030442903 -0.065957025 -0.046565935 0.02474346 0.093415104 0.030604927
-0.030366203 0.01847341 -0.005921842 -0.08519485 0.011533926 0.032150976 -0.017016638 0.049872924
0.0527019 -0.100456834 -0.06803642 -0.102947146 -0.00011094133 0.054543603 0.026635516 0.057265002
-0.047108177 0.042264793 0.070599966 0.041522928 0.091514535 -0.022507016 0.012100358 0.038138404
0.117019884 -0.042229954 -0.049495462 0.07756657 0.016182937 -0.08165924 0.07398464 -0.018032892
0.022735955 0.06375913 0.05754984 -0.07199237 0.004913968 -0.08160684 0.089078665 -0.07241135
0.08521011 0.054121554 0.081175275 -0.07900548 0.09501479 -0.032374848 -0.057671953 0.003798791
-0.022910835 0.06809303 0.022275329 0.02507057 -0.010449526 0.0540511 -0.092292614 -0.06266458
0.09983999 0.053302795 0.03205139 -0.026090099 -0.0023681247 -0.011570086 -0.059439756 -0.049350414
0.0034489331 -0.079485364 -0.031936694 -0.07257697 0.065425955 0.024548111 0.05646953 0.030492596
0.00035599634 -0.03820739 -0.07615127 -0.03673495 -0.0018644631 0.031953007 0.00658629 -0.07761632
-0.04371908 -0.037004963 0.10594912 -0.09519685 -0.09484784 -0.056205824 0.032336824 -0.0822675
0.060693767 -0.0974142 0.0110761 -0.044225138 0.033727013 0.049353532 0.040330894 0.10380505
0.044181522 -0.08510983 0.0506957 -0.033464085 0.012550592 -0.025781985 -0.08390125 -0.029953137
00000000: 5c8b 3dbd 59ac cfbd 922a aebc 0683 a33d
00000010: 5087 33bd 4f9b 9fbc 8477 06bc 6a66 b33d
00000020: 95c3 acbd d81d 11bd 702a bcbd 9f6b 933d
00000030: ec45 573b 5a99 fe3c 5bdb 833b fa39 a4bd
00000040: ef25 0ebd 38fe ecbc 6fea 30bd 55bf 2bbd
00000050: aa00 223d 3303 cdbd 5c55 82bc 299f 6f3c
00000060: 8ae5 88bd 6589 013d ec3a 45bc 9dee 78bc
00000070: 39f7 e23b f8c7 ebbb c8ba 4b3d 3dbf 553c
00000080: e2d3 863d dcd1 1ebd 497c 663d 5de3 d2b9
00000090: 35f8 ebbc 1922 06bc 3ba6 ddbc 9bfe 9e3c
000000a0: 2103 f1bc 18b0 ad3d f52b 273d bb1e d9bc
000000b0: 098e 7dbd 7376 77bd 04c3 bbbc 2a0f e33c
000000c0: e1e8 92bd 6d5b f83a 0d5b a53d 814f 52bd
000000d0: 2cd6 623c ad1e 51bd 9af8 493d e1fc 713d
000000e0: d015 3b3c d3b3 aebd 739f dbbd ea23 a1bd
000000f0: 54bd cd3d 41f5 843d 03a4 e23c 623c 633d
00000100: 7929 ae3b fe98 743d 3dd7 2cbc 88db 88bd
00000110: c8e3 99bd d31c 97bd de7c 37bd 9140 8a3d
00000120: f76f d63d 6cff 8f3d 9d9f 62bc 0d8c 723c
00000130: fa5b 11bd 292e 64bc 5d41 6e3d fa0e 02bd
00000140: 7e11 2a3d ed89 c93c b7b3 aa3c 238c 8c3c
00000150: 303d 9e3c ad2f afbd e77d 41bd bb05 913d
00000160: 4dbb 713d 1646 103d b932 803d c23a b8bd
00000170: d827 5cbc 134b 70bd 3c8b 303c 47f4 8dbd
00000180: 1cc6 a73c bfff b0bc 75d5 83bd 0956 723d
00000190: ec43 373d f0d0 85bd b968 4dbb 3b72 8a3d
000001a0: 82ce 4bbd e712 dfbc 4bb5 113d e2f8 573d
000001b0: c301 fc3c 1075 3ebd 92d1 6c3d d95f 17bd
000001c0: 7901 0dbb 17ad a9bd 76d6 a33d b1f0 c1bd
000001d0: 5ab5 8fbc 31d2 acbd e2f1 d0bc 26a1 f4bc
000001e0: c39b a2bd 5ec8 f23c 1aae 19bd 27e4 14bd
000001f0: 1d41 3d3d 60d8 133b d5f0 c63d 1dbe 41bc
00000200: 909e 943d d407 973c c72a a03d 37ca 283d
00000210: cd76 513c 6e64 c03c 7e97 e33a 450f f83c
00000220: baed 93bd c39b abbd 7714 3cbc 0f37 8fbd
00000230: d79c 5abb d117 cbbc eb4e 74bc ce20 7abd
00000240: 4753 04bd 8ecf 4b3d 6563 f9bc 7a14 87bd
00000250: ecbb 3ebd ccb2 ca3c 6b50 bf3d 2fb7 fa3c
00000260: 8bc2 f8bc 8c55 973c 030c c2bb a37a aebd
00000270: cbf8 3c3c beb0 033d 7a66 8bbc 8d47 4c3d
00000280: f3dd 573d 50bc cdbd ae56 8bbd f4d5 d2bd
00000290: 2ca9 e8b8 1d69 5f3d ba32 da3c b58e 6a3d
000002a0: 81f4 40bd d91d 2d3d b796 903d f213 2a3d
000002b0: f96b bb3d a260 b8bc 9440 463c 0437 1c3d
000002c0: 1fa8 ef3d 51f9 2cbd c1bb 4abd 39db 9e3d
000002d0: 1492 843c f63c a7bd 4285 973d b7b9 93bc
000002e0: c140 ba3c 2694 823d 62b9 6b3d bc70 93bd
000002f0: 5a05 a13b 7d21 a7bd e06e b63d 674c 94bd
00000300: a382 ae3d 90ae 5d3d 393f a63d a0cd a1bd
00000310: 1d97 c23d 7d9b 04bd 6d39 6cbd 23f5 783b
00000320: 81af bbbc 5c74 8b3d c07a b63c cc60 cd3c
00000330: 7d34 2bbc b064 5d3d e903 bdbd 4a56 80bd
00000340: e978 cc3d 0854 5a3d 5148 033d e7ba d5bc
00000350: 8a32 1bbb 7590 3dbc 1a77 73bd a923 4abd
00000360: 7f07 623b 39c9 a2bd 0dd0 02bd 3ca3 94bd
00000370: 0bfe 853d 1f19 c93c 984c 673d 9ccb f93c
00000380: 05a5 ba39 5a7f 1cbd 32f5 9bbd 6377 16bd
00000390: 0061 f4ba 28e1 023d ced1 d73b 4ef5 9ebd
000003a0: c712 33bd 8492 17bd dafb d83d 91f6 c2bd
000003b0: 963f c2bd 1438 66bd 9e73 043d dd7b a8bd
000003c0: 079a 783d 1981 c7bd 8878 353c 6b25 35bd
000003d0: 5625 0a3d ee26 4a3d 0232 253d be97 d43d
000003e0: aff7 343d 104e aebd 4ba6 4f3d a311 09bd
000003f0: 00a1 4d3c be34 d3bc 6bd4 abbd 4860 f5bc

encoder.attn.q_linear.bias f4 [128]
-0.078061014 0.0060218466 0.009506287 -0.053393953 -0.059563804 0.044880718 -0.024257272 -0.08914678
0.08001034 0.09191691 0.019892499 -0.06693884 -0.05654184 -0.009764038 -0.088348284 -0.045544457
0.06825848 -0.074596755 -0.05090952 -0.0688376 0.03465204 -0.023525592 -0.03915783 0.021456962
0.08626596 0.10555807 -0.08250605 -0.05429252 -0.039341588 -0.048789136 -0.07374806 0.045335762
-0.009800184 0.06304084 0.077511944 0.031813543 0.051405724 0.015259062 0.006911867 0.083176516
-0.07981631 0.09282161 0.05258589 -0.07446699 0.08197549 -0.075679615 0.07470815 -0.050718833
-0.023038542 0.028578382 0.07272496 -0.08923097 -0.042743932 0.039963122 0.014080296 0.017814964
-0.062240005 0.06305616 0.047327105 -0.001996813 0.075005084 -0.032108005 0.095092595 0.045213513
-0.07646077 -0.058437467 -0.07296828 -0.002402921 -0.0053366087 -0.046513114 -0.0145490505 -0.06273447
0.03644359 -0.081442155 -0.062106825 -0.04793047 0.05329378 0.059628163 -0.034714796 -0.011574699
0.072706215 0.055255257 0.04709002 -0.058636304 -0.05417463 0.026569113 -0.063648134 0.08110444
0.047885895 -0.07315666 0.05082985 -0.047388718 -0.018738452 -0.08170001 0.082494535 -0.06536424
-0.033746522 0.076109886 0.036682256 -0.014701919 -0.012984012 0.052816197 -0.048925187 -0.06548266
-0.084700316 0.07081432 -5.2737682e-06 0.0154712945 -0.03307989 -0.027200447 0.01027915 -0.08688603
0.01727937 0.069712415 0.05173395 0.0002272579 -0.033183187 -0.0018651618 0.00903032 0.0071085976
0.0026807124 0.06067136 -0.0066913976 0.028986266 -0.052619945 0.06438317 0.08342337 -0.02102499
00000000: 74de 9fbd e952 c53b 42c0 1b3c 9eb3 5abd
00000010: 2df9 73bd d8d4 373d 30b7 c6bc 9692 b6bd
00000020: 76dc a33d ef3e bc3d 98f5 a23c 3b17 89bd
00000030: 6b98 67bd 58f9 1fbc f2ef b4bd d38c 3abd
00000040: 1acb 8b3d 2fc6 98bd 8086 50bd bafa 8cbd
00000050: 4cef 0d3d beb8 c0bc f663 20bd 83c6 af3c
00000060: 35ac b03d d42e d83d eff8 a8bd d561 5ebd
00000070: a524 21bd 1ed7 47bd 3909 97bd feb1 393d
00000080: f390 20bc 8e1b 813d 95be 9e3d eb4e 023d
00000090: cf8e 523d 2501 7a3c f17c e23b 7358 aa3d
000000a0: bc76 a3bd 4219 be3d 4d64 573d 2682 98bd
000000b0: c4e2 a73d eafd 9abd 9600 993d 8dbe 4fbd
000000c0: 53bb bcbc 361d ea3c d3f0 943d babe b6bd
000000d0: 4314 2fbd 5fb0 233d 0bb1 663c b0f0 913c
000000e0: 60ef 7ebd 9723 813d 11da 413d f7dc 02bb
000000f0: 449c 993d af83 03bd e8bf c23d ce31 393d
00000100: 7797 9cbd 205c 6fbd 6570 95bd 537a 1dbb
00000110: b8de aebb 8984 3ebd 245f 6ebc ee7a 80bd
00000120: e045 153d 25cb a6bd ba63 7ebd be52 44bd
00000130: 944a 5a3d a93c 743d 1a31 0ebd cea3 3dbc
00000140: ffe6 943d 5653 623d 77e1 403d 9f2c 70bd
00000150: 38e6 5dbd 78a7 d93c f459 82bd 161a a63d
00000160: 0024 443d 29d3 95bd f632 503d ac1a 42bd
00000170: 6281 99bc 5652 a7bd e5f2 a83d b0dd 85bd
00000180: cb39 0abd 80df 9b3d 2240 163d 51e0 70bc
00000190: e5ba 54bc cc55 583d c765 48bd c61b 86bd
000001a0: 5c77 adbd 1907 913d 53f5 b0b6 507b 7d3c
000001b0: c77e 07bd 79d3 debc e169 283c 4ef1 b1bd
000001c0: 778d 8d3c 62c5 8e3d fae6 533d 144c 6e39
000001d0: 18eb 07bd 7278 f4ba e8f3 133c 3def e83b
000001e0: e4ae 2f3b 8882 783d 8343 dbbb 9b74 ed3c
000001f0: 0388 57bd 53db 833d dfd9 aa3d 9a3c acbc

encoder.attn.k_linear.weight f4 [128, 128]
-0.0005539326 0.035847608 -0.04206693 0.0852356 -0.005851913 0.07190927 0.05843324 -0.056623824
-0.11317787 0.017153755 -0.057096556 0.077287644 -0.06162431 0.05442434 -0.059070256 0.04878905
-0.055832665 0.057149053 -0.034475934 0.038094148 -0.006309949 0.07427995 0.011214102 -0.07515809
0.058594115 0.04529498 -0.09046122 -0.005522958 -0.08998639 0.075305104 0.071105264 -0.05273174
-0.04952719 -0.06319186 0.07811931 -0.08516951 -0.017806843 -0.03694691 0.08180546 -0.064181246
-0.09837505 -0.06317887 0.09149147 0.035185866 0.088298626 -0.07311533 0.02970161 -0.100870624
0.012524118 -0.07844226 0.07621815 -0.07343346 -0.02609121 -0.029091492 0.025874512 0.009319402
0.007174122 0.0042346045 0.05406784 0.060324803 -0.014846166 0.051061794 0.054443203 -0.099262446
0.06478097 -0.08712461 0.04269034 0.058320634 -0.026067292 0.025452347 -0.030993529 0.03583303
-0.054350857 -0.016984101 0.020403208 -0.07037624 0.09690746 0.034518626 0.05942805 -0.055209413
0.058869906 -0.047292065 0.059446905 0.040463354 -0.015147009 -0.011217097 0.05160836 -0.06341048
0.036000818 -0.03609522 0.053261597 0.047503594 0.025523813 0.0006871635 -0.09796107 -0.06319484
-0.02410182 0.06411348 0.026843803 -0.004043138 -0.016571399 -0.014976678 -0.058427483 0.008782858
0.05637724 0.04223418 0.054880537 0.03996555 0.01702973 -0.0024134985 0.049319413 -0.0060329726
-0.073159024 -0.10488335 -0.01598756 0.065586336 0.008196657 0.08611435 -0.018843433 0.052510545
0.077855214 0.049705435 -0.026828285 0.048984334 -0.09558824 -0.0074483873 0.022363087 -0.045679286
0.052779794 -0.028170891 -0.033892922 0.056837395 -0.07914576 -0.0918786 0.008141834 -0.052171316
0.04539308 -0.0011837257 -0.08340455 0.061362866 0.0061862334 0.0076997746 -0.08161753 0.06595628
0.04652833 0.012698479 -0.04860721 -0.001108113 0.0789236 0.0410969 0.023597091 0.10941572
-0.0090002045 -0.09115141 -0.07295219 0.057102263 0.02778818 0.069129445 0.02359461 -0.0515702
-0.09602789 -0.027092615 0.0010890655 -0.04485271 -0.034474537 -0.04120203 0.028282644 0.03312704
0.08657518 0.037215132 -0.024642786 -0.030525664 0.036729004 0.0012464252 0.0688558 -0.057582483
0.0622574 0.06469754 -0.00485816 -0.0822002 0.08306543 -0.0259575 0.028827501 0.0023094744
0.061685286 -0.071989946 -0.07610394 0.08239989 -0.017572146 0.046405982 -0.08799048 -0.0011253846
-0.081761114 -0.022540106 0.037707053 0.042394828 -0.027412657 0.07314176 -0.01885722 -0.023945035
0.005273484 0.076739565 -0.08201612 -0.07635967 0.00055996684 0.048205726 -0.06974767 -0.050045785
0.025868874 0.07298613 0.032187987 0.08064408 -0.06287193 -0.030303778 -0.07667637 -0.014440256
-0.081365265 -0.05869368 -0.031682935 -0.016889913 -0.015623383 0.03773306 -0.044027064 0.009010781
0.0011945069 -0.018544786 -0.0060113817 0.06476901 0.051405713 0.052025784 -0.034518603 -0.046693157
0.088806294 -0.06171892 -0.04650941 -0.026841082 -0.03761719 -0.041237604 -0.018596973 -0.024840958
0.046793826 -0.041783623 0.00072652445 -0.0764091 -0.101896144 -0.026359446 0.06808132 -0.045929607
0.04212764 0.045188706 0.08930558 -0.03571509 0.0726325 0.0028413893 -0.031385243 0.07052509
00000000: ca35 11ba f1d4 123d 604e 2cbd 0190 ae3d
00000010: 67c1 bfbb 2b45 933d b157 6f3d 62ee 67bd
00000020: cdc9 e7bd 0886 8c3c 14de 69bd fc48 9e3d
00000030: c669 7cbd 0fec 5e3d a7f3 71bd 07d7 473d
00000040: cbb0 64bd 2015 6a3d a336 0dbd 9c08 1c3d
00000050: b0c3 cebb 1620 983d 5abb 373c 7cec 99bd
00000060: 6200 703d 3b87 393d bb43 b9bd eef9 b4bb
00000070: c94a b8bd 9039 9a3d a39f 913d 3dfd 57bd
00000080: 06dd 4abd bc6a 81bd 04fd 9f3d 5a6d aebd
00000090: a8df 91bc a555 17bd 9f89 a73d 7571 83bd
000000a0: dc78 c9bd ec63 81bd e15f bb3d 0e1f 103d
000000b0: e9d5 b43d 7dbd 95bd ca50 f33c 4295 cebd
000000c0: f531 4d3c 56a6 a0bd 4318 9c3d 4864 96bd
000000d0: 3cbd d5bc 4851 eebc c9f6 d33c 68b0 183c
000000e0: e614 eb3b 70c2 8a3b 3d76 5d3d 2417 773d
000000f0: 553d 73bc 2c26 513d d6ff 5e3d 1c4a cbbd
00000100: e3ab 843d 636e b2bd 11dc 2e3d 9ee1 6e3d
00000110: 138b d5bc 7181 d03c 24e6 fdbc a8c5 123d
00000120: 019f 5ebd 3e22 8bbc a124 a73c 6b21 90bd
00000130: 6b77 c63d 6763 0d3d d46a 733d 4423 62bd
00000140: 9221 713d 53b5 41bd 997e 733d e7bc 253d
00000150: 292b 78bc eac7 37bc 4a63 533d 5bdd 81bd
00000160: 9875 133d 95d8 13bd d528 5a3d 2193 423d
00000170: 5117 d13c c322 343a d09f c8bd 4c6c 81bd
00000180: 2e71 c5bc ee4d 833d 89e7 db3c 4d7c 84bb
00000190: bec0 87bc be60 75bc a851 6fbd fae5 0f3c
000001a0: d2eb 663d bffd 2c3d 6aca 603d ebb2 233d
000001b0: ef81 8b3c c92b 1ebb 2703 4a3d 3eb0 c5bb
000001c0: 66d4 95bd 15cd d6bd 58f8 82bc 2152 863d
000001d0: 454b 063c b85c b03d 8b5d 9abc 4c15 573d
000001e0: 8e72 9f3d ed97 4b3d fec6 dbbc cca3 483d
000001f0: c4c3 c3bd 9a11 f4bb cb32 b73c 341a 3bbd
00000200: a02f 583d a4c6 e6bc 4ed3 0abd 54ce 683d
00000210: 2c17 a2bd d92a bcbd 5465 053c 97b1 55bd
00000220: 18ee 393d 3e27 9bba 01d0 aabd a157 7b3d
00000230: e3b5 ca3b 644e fc3b 1727 a7bd 1614 873d
00000240: 7d94 3e3d 480d 503c 5b18 47bd 1a3e 91ba
00000250: b2a2 a13d 3955 283d b04e c13c 5915 e03d
00000260: 9875 13bc 97ad babd f567 95bd 10e4 693d
00000270: 0aa4 e33c bd93 8d3d 7c49 c13c 463b 53bd
00000280: 45aa c4bd 55f1 ddbc f9be 8e3a 7ab7 37bd
00000290: 2c35 0dbd 76c3 28bd 01b1 e73c 38b0 073d
000002a0: 544e b13d e56e 183d abdf c9bc f510 fabc
000002b0: 2771 163d 175f a33a 4504 8d3d 9cdb 6bbd
000002c0: 9e01 7f3d 2580 843d 3331 9fbb 9458 a8bd
000002d0: 351e aa3d d3a4 d4bc a727 ec3c 8d5a 173b
000002e0: b6a9 7c3d 776f 93bd 62dc 9bbd 46c1 a83d
000002f0: 76f3 8fbc 3314 3e3d 5a34 b4bd a481 93ba
00000300: 5f72 a7bd 07a6 b8bc b672 1a3d 33a6 2d3d
00000310: 8290 e0bc 59cb 953d 757a 9abc 6128 c4bc
00000320: 31cd ac3b a229 9d3d 11f8 a7bd 7562 9cbd
00000330: bdca 123a 5e73 453d ded7 8ebd cffc 4cbd
00000340: f6ea d33c c179 953d 8dd7 033d b928 a53d
00000350: 00c3 80bd a13f f8bc 8008 9dbd d396 6cbc
00000360: d5a2 a6bd c968 70bd f7c5 01bd b75c 8abc
00000370: 38f9 7fbc fb8d 1a3d b955 34bd f4a1 133c
00000380: 0091 9c3a 3ceb 97bc 20fb c4bb 9da5 843d
00000390: cc8e 523d fd18 553d 6163 0dbd 5341 3fbd
000003a0: 13e0 b53d facc 7cbd a780 3ebd d4e1 dbbc
000003b0: 7c14 1abd c3e8 28bd ae58 98bc 447f cbbc
000003c0: e2aa 3f3d 4e25 2bbd 3b74 3e3a 607c 9cbd
000003d0: edae d0bd c4ef d7bc 386e 8b3d af20 3cbd
000003e0: 088e 2c3d cb17 393d d8e5 b63d fc49 12bd
000003f0: 59c0 943d 9a36 3a3b d08d 00bd 756f 903d

encoder.attn.k_linear.bias f4 [128]
0.058252767 -0.07427781 0.078247465 -0.0027973435 2.0358291e-05 -0.04841219 -0.011870561 -0.047609333
0.07859268 -0.06639552 -0.008999039 0.030767102 -0.05752023 0.08557978 0.07225609 0.065924965
-0.056494143 -0.03866971 -0.036675468 0.011126152 -0.053496707 -0.009970699 -0.035323042 0.059799768
-0.06905354 0.075821176 -0.059450638 -0.034376938 -0.0066591855 0.05932861 0.027577009 -0.07904318
0.04893317 -0.015459693 -0.03619848 0.07823237 -0.0652497 0.03843459 0.01186662 -0.06911709
-0.07036656 0.01758799 -0.07153034 -0.04444762 0.076492056 0.032325663 0.01737938 -0.0018291759
0.054655097 -0.087753244 -0.030935757 0.0344645 -0.08415789 -0.037512396 0.07227876 0.012134825
-0.0756382 0.059091184 0.028091928 -0.0072379177 0.065996766 -0.0051616966 -0.02348544 0.027814029
0.00375549 -0.029372528 -0.06560739 -0.010964422 0.047955804 0.025355062 0.023891458 0.006309991
0.0048174616 -0.01647781 0.00919792 -0.05946498 0.0810548 0.08600098 0.0457483 -0.022086266
-0.02862572 0.07235601 -0.041116353 -0.0001958468 0.07677374 0.0422422 0.035518583 0.004962802
0.030299744 -0.03758032 0.051416174 0.062333733 -0.036650043 -0.039920233 0.044006422 0.0031413506
-0.054920737 0.017941406 -0.046238493 0.0647122 0.06066906 0.045139913 -0.060647912 0.06454914
-0.05660729 -0.05717359 -0.050735258 0.0056410567 -0.001656102 0.08098874 0.06976544 -0.072567195
-0.071464054 0.07159988 -0.06614452 -0.048224647 0.02790875 -0.054607827 0.030552585 0.048697967
-0.0424492 0.04989864 0.01828953 0.04439474 -0.053826295 0.0882578 0.052240144 0.037781995
00000000: 749a 6e3d f71e 98bd 3540 a03d a353 37bb
00000010: 19c7 aa37 dc4b 46bd be7c 42bc 0102 43bd
00000020: 33f5 a03d 60fa 87bd b570 13bc 4a0b fc3c
00000030: 559a 6bbd 7444 af3d 00fb 933d ab03 873d
00000040: 6766 67bd 2164 1ebd 0439 16bd 774a 363c
00000050: 5d1f 5bbd 255c 23bc e5ae 10bd 9af0 743d
00000060: f16b 8dbd 2248 9b3d 8382 73bd d5ce 0cbd
00000070: 4c35 dabb 8e02 733d 2ee9 e13c 64e1 a1bd
00000080: 266e 483d a74a 7dbc db44 14bd 4b38 a03d
00000090: a2a1 85bd 976d 1d3d 366c 423c 438d 8dbd
000000a0: 581c 90bd b014 903c 807e 92bd b50e 36bd
000000b0: dea7 9c3d ea67 043d 345f 8e3c f5c0 efba
000000c0: 06de 5f3d f9b7 b3bd fc6c fdbc a62a 0d3d
000000d0: f95a acbd 99a6 19bd e306 943d 25d1 463c
000000e0: 33e8 9abd 9909 723d 0b21 e63c 0e2c edbb
000000f0: 5029 873d 7323 a9bb 8a64 c0bc 3fda e33c
00000100: ab1e 763b a89e f0bc 2b5d 86bd 1ea4 33bc
00000110: 4e6d 443d 6bb5 cf3c 05b8 c33c 0ac4 ce3b
00000120: ccdb 9d3b 79fc 86bc dfb2 163c 8d91 73bd
00000130: 0f00 a63d 4821 b03d 9262 3b3d 42ee b4bc
00000140: 7c80 eabc 632f 943d 9f69 28bd 3a5c 4db9
00000150: 8d3b 9d3d 2806 2d3d ef7b 113d 009f a23b
00000160: 2b37 f83c d2ed 19bd c499 523d a851 7f3d
00000170: 5b1e 16bd 6683 23bd 1440 343d 1edf 4d3b
00000180: 91f4 60bd dbf9 923c 9364 3dbd d487 843d
00000190: 1f80 783d a1e4 383d f269 78bd 5732 843d
000001a0: 0cdd 67bd db2e 6abd c6cf 4fbd 9dd8 b83b
000001b0: 9011 d9ba 6ddd a53d 2fe1 8e3d 1c9e 94bd
000001c0: bf5b 92bd f5a2 923d c776 87bd 3587 45bd
000001d0: e4a0 e43c 75ac 5fbd 6a49 fa3c 8577 473d
000001e0: 36df 2dbd 8462 4c3d edd3 953c 42d7 353d
000001f0: f678 5cbd 81c0 b43d c3f9 553d 4bc1 1a3d

encoder.attn.v_linear.weight f4 [128, 128]
0.06082809 -0.016721651 -0.0014906267 0.05188244 0.039138578 0.050795153 -0.060647998 0.060044695
0.03188021 0.0684169 -0.07670539 0.014315376 -0.026077425 -0.018471722 0.029087927 -0.014185799
-0.09384926 0.027027663 -0.05536705 0.05160118 -0.057695046 0.057522234 0.017944558 0.022188831
-0.0025281315 0.019815957 -0.05643182 -0.038090408 -0.015766218 -0.06319493 0.009924825 -0.019590115
0.052335046 -0.013443845 -0.08061197 -0.065583155 0.06600117 -0.0045739906 0.036409434 0.037844233
-0.095567286 -0.007366243 -0.00026205633 0.029298065 -0.04077527 0.075587675 0.07163792 0.08657335
0.054852255 0.06537218 0.0050866213 -0.040671654 0.029295174 -0.039281424 -0.025676295 0.06330221
-0.07088998 0.08139993 0.035524633 0.03840736 0.045523748 0.068723544 -0.025563117 -0.0040892065
0.093147956 -0.03983565 0.06305839 0.03646539 0.07059626 -0.016491946 0.056930322 -0.010754126
-0.05243283 0.049913533 0.06262648 0.058191035 -0.012858506 0.02027657 -0.07787916 -0.066241644
-0.07805189 0.0732633 0.05743152 0.06382604 -0.02935283 0.084065415 -0.005594068 -0.06136949
0.03602332 -0.038186993 -0.07602173 0.017823018 -0.11435889 -0.08047824 -0.058495887 0.047107965
-0.027570186 -0.009583767 -0.032503247 0.022308506 0.074764304 -0.056972817 -0.05832778 -0.02447909
-0.06964141 0.04017993 0.010750678 0.044191837 0.036744095 0.032493595 -0.016225863 0.05736566
0.050299607 -0.08059871 -0.06256769 0.03776641 -0.023001172 0.09052658 -0.044317845 0.011301013
-0.010324442 -0.0646686 -0.075479805 -0.0566831 0.03621661 -0.030141154 -0.027926164 -0.057615403
0.012437141 0.03097506 0.057627153 0.05698899 0.05068627 -0.08249738 0.0069072517 0.034534402
0.028029328 -0.053451553 0.022784606 0.074539214 0.024235 -0.07862818 -0.06381744 0.00054359855
0.08342546 -0.015158646 0.058832597 0.027917884 -0.03804133 -0.017032819 -0.028394932 0.021110432
0.049398676 0.015232307 -0.012912786 -0.06689457 0.051607423 -0.062784374 -0.09096593 -0.04301789
0.032371815 0.07793528 0.010947097 -0.020667337 0.039196815 -0.060284346 -0.045756865 0.030875841
0.013072136 -0.02150278 0.070101134 0.050097756 0.023663929 0.02498294 0.0007114956 0.052639283
-0.05576398 -0.06377851 0.066027686 -0.038800217 0.011985193 0.0065120705 -0.05829996 -0.082066976
-0.033431362 -0.06356523 0.043403715 0.077951305 0.032141622 0.031343404 0.061618682 0.044822145
-0.0013000803 0.03995909 0.03705739 0.020406479 0.03406943 -0.029246088 -0.0754164 -0.083257794
-0.08130025 -0.028212555 0.07369625 0.02946971 -0.07177588 -0.084964 0.062090296 -0.021301528
0.07673615 0.030806702 -0.018728504 0.08830287 -0.04503053 -0.07574859 0.016607419 0.054118276
-0.033060357 -0.059803434 0.012186489 0.07976032 -0.08241303 0.08746205 -0.08351113 -0.030544657
0.066252984 -0.06473756 -0.030428708 0.042465493 -0.023663837 -0.06778111 0.1072067 -0.047355674
-0.050475877 -0.082594074 0.06514213 -0.017371768 -0.007000438 0.045403775 -0.07527277 0.08489968
0.1258685 0.0074867564 0.07574333 -0.032893926 0.08725559 0.03275504 0.005206723 0.040095937
-0.062003735 -0.014133497 -0.060198475 0.058625218 -0.05596528 0.08499904 0.01083285 0.020852309
00000000: e026 793d d8fb 88bc 2261 c3ba ae82 543d
00000010: c64f 203d 940e 503d 096a 78bd 6df1 753d
00000020: d394 023d 291e 8c3d b717 9dbd 0a8b 6a3c
00000030: 53a0 d5bc 0252 97bc ce49 ee3c 8e6b 68bc
00000040: 0a34 c0bd 1e69 dd3c 8fc8 62bd c25b 533d
00000050: a451 6cbd 6f9c 6b3d 7700 933c 5ac5 b53c
00000060: 02af 25bb 1355 a23c 0d25 67bd b004 1cbd
00000070: 2828 81bc 586c 81bd bc9b 223c 737b a0bc
00000080: 465d 563d 9343 5cbc e317 a5bd 7650 86bd
00000090: 9f2b 873d 6ae1 95bb 0f22 153d 8e02 1b3d
000000a0: c8b8 c3bd 8660 f1bb 9b64 89b9 7f02 f03c
000000b0: f803 27bd b6cd 9a3d e7b6 923d 5e4d b13d
000000c0: c2ac 603d d9e1 853d acad a63b 5297 26bd
000000d0: 6ffc ef3c 8fe5 20bd 1857 d2bc 97a4 813d
000000e0: c42e 91bd 02b5 a63d 4782 113d 0951 1d3d
000000f0: 1c77 3a3d eebe 8c3d be69 d1bc c0fe 85bb
00000100: 5bc4 be3d b52a 23bd c224 813d bc5c 153d
00000110: c694 903d 1e1a 87bc c52f 693d 1332 30bc
00000120: cfc3 56bd 2272 4c3d 5042 803d b959 6e3d
00000130: 7cac 52bc 0d1b a63c 1c7f 9fbd b3a9 87bd
00000140: abd9 9fbd 120b 963d 503d 6b3d 3ab7 823d
00000150: 5975 f0bc 7d2a ac3d 724e b7bb 935e 7bbd
00000160: 308d 133d f769 1cbd 48b1 9bbd 9401 923c
00000170: fe34 eabd c7d1 a4bd 6299 6fbd 48f4 403d
00000180: dfda e1bc 3b05 1dbc 2022 05bd 54c0 b63c
00000190: 071e 993d 545c 69bd 1ce9 6ebd 5f88 c8bc
000001a0: 28a0 8ebd b693 243d 9d23 303c 8002 353d
000001b0: fa80 163d 0118 053d 1aec 84bc 41f8 6a3d
000001c0: f606 4e3d f010 a5bd 7d23 80bd f3b0 1a3d
000001d0: f46c bcbc 0066 b93d a186 35bd e227 393c
000001e0: d927 29bc f970 84bd 2895 9abd 8a2c 68bd
000001f0: de57 143d 95ea f6bc 69c5 e4bc 21fe 6bbd
00000200: 26c5 4b3c 69bf fd3c 730a 6c3d 4a6d 693d
00000210: 689c 4f3d 63f4 a8bd 3a56 e23b f273 0d3d
00000220: c39d e53c 04f0 5abd c8a6 ba3c 04a8 983d
00000230: 7b88 c63c d007 a1bd b8b2 82bd 4880 0e3a
00000240: f8da aa3d f85b 78bc 73fa 703d 0cb4 e43c
00000250: 3ad1 1bbd 6988 8bbc 7d9c e8bc c9ef ac3c
00000260: 4456 4a3d ed90 793c 2690 53bc 0500 89bd
00000270: 4e62 533d 1895 80bd 584c babd 8733 30bd
00000280: 4f98 043d 889c 9f3d 745b 333c 8c4e a9bc
00000290: d78c 203d b8ec 76bd 8d6b 3bbd 55ef fc3c
000002a0: 832c 563c 9926 b0bc 2f91 8f3d 4e33 4d3d
000002b0: dbda c13c 06a9 cc3c a983 3a3a 4a9c 573d
000002c0: c568 64bd 4f9e 82bd 8639 873d faec 1ebd
000002d0: 8b5d 443c 3563 d53b f0cb 6ebd bb12 a8bd
000002e0: 53ef 08bd 7d2e 82bd 18c8 313d efa4 9f3d
000002f0: efa6 033d f161 003d df63 7c3d 6d97 373d
00000300: 7567 aaba 25ac 233d 7dc9 173d 7d2b a73c
00000310: 638c 0b3d 7e95 efbc ea73 9abd 1083 aabd
00000320: bf80 a6bd 041e e7bc 0fee 963d 766a f13c
00000330: 3cff 92bd 9b01 aebd 6552 7e3d 8b80 aebc
00000340: d827 9d3d 565e fc3c 856c 99bc 23d8 b43d
00000350: ef71 38bd 1422 9bbd 480c 883c 20ab 5d3d
00000360: 4c6a 07bd 72f4 74bd d7a9 473c 6159 a33d
00000370: 2ac8 a8bd 4e1f b33d e207 abbd ca38 fabc
00000380: a5af 873d 2095 84bd a045 f9bc 4cf0 2d3d
00000390: aada c1bc d3d0 8abd 308f db3d 06f8 41bd
000003a0: cbbf 4ebd 1527 a9bd 3d69 853d 3d4f 8ebc
000003b0: ee63 e5bb 4ff9 393d 9c28 9abd e2df ad3d
000003c0: ace3 003e 7753 f53b 521f 9b3d c8bb 06bd
000003d0: 0fb3 b23d 262a 063d 299d aa3b a33b 243d
000003e0: a1f7 7dbd 2f90 67bc ad92 76bd ff20 703d
000003f0: d93b 65bd fa13 ae3d 447c 313c 76d2 aa3c

encoder.attn.v_linear.bias f4 [128]
-0.030972874 -0.055845108 -0.057675634 -0.047141574 -0.012745795 0.06935444 -0.032482572 0.037470303
-0.011861209 0.03521026 -0.07781738 -0.042839758 -0.07408121 -0.07693547 0.042189814 0.05169865
0.043720666 -0.0065144002 -0.020763297 0.080358356 -0.06845799 -0.005350971 -0.064062215 0.014669913
0.077764764 -0.046082098 0.058307134 -0.051536623 -0.042311024 0.0050038914 -0.037442952 0.06844671
0.060009405 -0.03683063 -0.039034925 -0.071569905 0.0053863944 0.00885007 0.04971495 -0.070712246
-0.069003254 -0.08476939 0.048946306 0.07465109 -0.079039045 -0.10024121 -0.005893803 -0.0012550551
-0.07795205 -0.029665474 0.05442124 -0.07284974 -0.059975408 -0.014426255 -0.025200836 0.007163177
-0.012838271 -0.046477366 0.026638232 0.08188095 -0.040478535 0.008397177 -0.02834599 -0.038202226
-0.060302097 0.07207441 0.017969603 -0.034519803 0.056913376 0.04860468 -0.012439614 -0.01724309
-0.0046879877 0.066092595 0.010377766 0.064257696 0.061780028 -0.011772616 0.022069855 -0.083782434
-0.012402162 -0.07956452 0.016951317 -0.05900743 0.0787477 0.07498613 -0.04334982 -0.040742654
0.06748293 -0.023047764 0.07219453 -0.00456799 0.011577056 -0.03618339 0.011864058 0.009976922
0.06623548 0.052603632 0.02633669 -0.052917033 -0.013916277 -0.06484967 -0.03013712 0.049779527
-0.051227164 0.0061129243 0.015992962 0.035291236 -0.043152116 0.029695489 0.039024465 -0.025725195
-0.043357413 0.041724775 -0.07889698 -0.05692132 -0.06507971 0.056720864 -0.008431202 0.061608404
0.08989569 0.041514788 0.06952329 0.05025191 0.07056829 -0.05694727 0.037433986 -0.074724555
00000000: d3ba fdbc d7bd 64bd 493d 6cbd 8617 41bd
00000010: bdd3 50bc b309 8e3d 720c 05bd 767a 193d
00000020: 8455 42bc a238 103d b85e 9fbd be78 2fbd
00000030: e4b7 97bd 5890 9dbd 3acf 2c3d f7c1 533d
00000040: 7114 333d c076 d5bb ca17 aabc ec92 a43d
00000050: b433 8cbd 3357 afbb 0d33 83bd 135a 703c
00000060: 2243 9f3d 95c0 3cbd 76d3 6e3d 1118 53bd
00000070: 534e 2dbd aff7 a33b c85d 19bd ca2d 8c3d
00000080: 6ccc 753d b7db 16bd 16e3 1fbd 3e93 92bd
00000090: 5a80 b03b e2ff 103c e7a1 4b3d 95d1 90bd
000000a0: 9451 8dbd 939b adbd ec7b 483d ace2 983d
000000b0: 39df a1bd 434b cdbd ce20 c1bb a980 a4ba
000000c0: 53a5 9fbd 0205 f3bc cee8 5e3d 3f32 95bd
000000d0: c6a8 75bd 195c 6cbc fc71 cebc 15b9 ea3b
000000e0: 9d57 52bc 0d5f 3ebd 6c38 da3c 33b1 a73d
000000f0: d2cc 25bd 5094 093c da35 e8bc f079 1cbd
00000100: 55ff 76bd c09b 933d fd34 933c a364 0dbd
00000110: 001e 693d b315 473d 86cf 4bbc 6141 8dbc
00000120: b19d 99bb 8e5b 873d 8107 2a3c 8a99 833d
00000130: 0e0d 7d3d eee1 40bc d7cb b43c 2096 abbd
00000140: 7032 4bbc b9f2 a2bd 7ddd 8a3c c6b1 71bd
00000150: 7946 a13d 5492 993d 958f 31bd c5e1 26bd
00000160: 7e34 8a3d aace bcbc bada 933d 14af 95bb
00000170: b1ad 3d3c 0935 14bd 7761 423c 3e76 233c
00000180: 78a6 873d e876 573d 0bc0 d73c 88bf 58bd
00000190: 1901 64bc e7cf 84bd 1fe2 f6bc 9ee5 4b3d
000001a0: 93d3 51bd ed4e c83b ac03 833c 8b8d 103d
000001b0: 46c0 30bd f443 f33c 1ed8 1f3d a5bd d2bc
000001c0: 8b97 31bd 99e7 2a3d bd94 a1bd 5426 69bd
000001d0: 8348 85bd 2354 683d 0623 0abc 1859 7c3d
000001e0: 3b1b b83d 690b 2a3d 3a62 8e3d f2d4 4d3d
000001f0: 1c86 903d 8a41 69bd 6154 193d 3009 99bd

encoder.attn.out_linear.weight f4 [128, 128]
-0.056612384 0.004577961 0.041049115 -0.022694545 0.02797909 0.030797416 0.020773368 0.032350667
0.0027948248 -0.06649513 0.0015069115 0.022561006 0.060532246 -0.024872072 0.055053186 0.003655545
-0.061078448 0.049863175 -0.06734671 0.0063139456 0.078728825 -0.029057538 0.030859156 0.09888222
-0.013178489 -0.001563743 -0.053084183 -0.060173 -0.0254117 0.028121734 -0.031175276 -0.06580794
-0.09932634 -0.051234208 0.050221182 -0.046325512 0.052180167 0.091238946 -0.0001124217 0.04537068
0.05240873 0.05103579 0.055946466 -0.07199595 -0.06403975 -0.023685472 -0.030826157 -0.06824853
-0.008382438 -0.013579971 0.004966192 0.031002361 0.023375345 -0.033816617 -0.024226408 0.041525207
-0.0037841124 0.07555187 -0.04663982 -0.068018086 -0.08521221 0.10596345 -0.019760339 0.039186496
-0.030094406 -0.0459029 -0.061415777 -0.06406417 0.020521455 -0.0028520338 0.008379523 0.08063125
0.025531527 -0.059161775 0.030650046 -0.10244475 0.007974747 -0.014995753 -0.056960367 -0.01696778
-0.023860756 -0.0071840677 -0.043462392 -0.057780676 -0.049407754 -0.075085685 0.026034955 -0.04832491
-0.06546566 0.06701292 0.024047641 -0.04928142 -0.063367024 0.06121398 -0.015371429 0.058726303
-0.068057045 -0.07974498 -0.012216595 0.020209977 0.06590903 -0.037792567 -0.054166358 0.009773711
0.05764164 -0.01638149 0.06573722 0.017787743 0.048244596 -0.08022472 -0.044176072 0.007491267
0.025532568 -0.03710317 -0.08379683 0.019545138 -0.024517013 0.10396733 -0.014626667 -0.009757069
0.084385805 0.037057154 0.0064349785 -0.07089437 0.07526914 0.050079107 -0.08926279 -0.06444731
0.04195177 0.050803024 0.039630298 0.032231305 0.051095247 0.007504292 -0.0015466925 -0.071640916
-0.03643357 -0.016533647 -0.008225851 -0.09975831 -0.028151765 -0.042212527 0.015662013 -0.039361764
-0.059514984 -0.019166872 0.059577942 0.029877536 -0.027031051 0.080460906 0.0023129908 -0.06420699
-0.0041915895 -0.05846534 0.025577575 -0.0723928 -0.06360547 -0.082136296 -0.017114228 0.049186468
-0.09589012 0.05848836 0.03497225 -0.04828058 -0.009407462 -0.033362787 -0.0067664403 -0.04043163
-0.04458209 -0.12280386 -0.09279834 -0.014871533 -0.033540968 0.024571545 0.11420264 -0.06282394
0.041727845 -0.08163705 0.04743278 0.054785244 0.013620466 0.089170314 0.044682223 -0.032126732
-0.069881245 -0.027813919 0.07749388 -0.060990836 -0.039766043 -0.04381125 -0.012862761 0.051498864
-0.04631497 0.07830962 0.004835246 -0.027697047 -0.030375144 0.091870084 0.02159814 0.019955121
0.0180562 0.056073874 0.045543086 -0.06369419 -0.069031276 -0.08910952 -0.027640663 -0.04580766
-0.053545944 0.07184527 -0.09578518 0.08612082 -0.01863987 -0.007771529 -0.09401137 -0.07631532
0.03496589 -0.06000004 -0.003265782 -0.01451526 -0.060340106 -0.061973237 -0.025882615 0.1040217
-0.06577198 0.06554683 0.027562596 0.04025756 -0.015729077 -0.070741355 0.05225177 -0.06491408
-0.039025586 -0.005592114 0.021085149 0.008918057 0.0002789433 -0.0917615 0.08639529 0.013004692
-0.06138815 0.06962812 -0.09527842 0.0022711945 -0.018731331 0.046192292 -0.095090985 -0.035563402
0.022903023 -0.0768901 0.042300746 -0.069813564 0.06606782 -0.034383103 -0.008368148 0.07675132
00000000: 63e2 67bd b802 963b 1e23 283d e9e9 b9bc
00000010: 6834 e53c dd4a fc3c e92c aa3c 2282 043d
00000020: 6129 373b 992e 88bd 8f83 c53a dcd1 b83c
00000030: a9f0 773d 84c0 cbbc 737f 613d de91 6f3b
00000040: 652d 7abd 543d 4c3d 12ed 89bd 37e5 ce3b
00000050: 943c a13d 130a eebc 57cc fc3c c382 ca3d
00000060: 97ea 57bc 82f6 ccba cd6e 59bd f777 76bd
00000070: 332c d0bc 8d5f e63c 4b63 ffbc 50c6 86bd
00000080: 9c6b cbbd f6da 51bd bab4 4d3d d2bf 3dbd
00000090: dfba 553d 7cdb ba3d f1c3 ebb8 9bd6 393d
000000a0: 89aa 563d e80a 513d 1f28 653d 9d72 93bd
000000b0: 4627 83bd 0908 c2bc 2387 fcbc e3c5 8bbd
000000c0: 7e56 09bc 877e 5ebc 70bb a23b aaf8 fd3c
000000d0: a77d bf3c 4b83 0abd 7676 c6bc 5616 2a3d
000000e0: dffe 77bb f0ba 9a3d 6509 3fbd 114d 8bbd
000000f0: bd83 aebd 5e03 d93d 6fe0 a1bc 0582 203d
00000100: 8b88 f6bc ae04 3cbd 1c8f 7bbd 1334 83bd
00000110: 9c1c a83c 30e9 3abb 444a 093c ff21 a53d
00000120: 7e27 d13c 9e53 72bd ce15 fb3c 8ece d1bd
00000130: 83a8 023c bfb0 75bc 464f 69bd 0400 8bbc
00000140: a277 c3bc 5468 ebbb 9f05 32bd 6eab 6cbd
00000150: c95f 4abd 86c6 99bd 4247 d53c 57f0 45bd
00000160: dc12 86bd 123e 893d 8fff c43c 50db 49bd
00000170: 92c6 81bd 83bb 7a3d 72d8 7bbc fe8a 703d
00000180: 7e61 8bbd 5651 a3bd 1d28 48bc 658f a53c
00000190: 50fb 863d 61cc 1abd 8bdd 5dbd ea21 203c
000001a0: a419 6c3d 7932 86bc 3ca1 863d 9ab7 913c
000001b0: 209c 453d dc4c a4bd f8f1 34bd 4d79 f53b
000001c0: ad29 d13c 7ef9 17bd ac9d abbd 201d a03c
000001d0: e7d7 c8bc d3ec d43d b0a4 6fbc 1ddc 1fbc
000001e0: 77d2 ac3d 3ec9 173d 83dc d23b 1131 91bd
000001f0: b526 9a3d c01f 4d3d 69cf b6bd f4fc 83bd
00000200: 9fd5 2b3d d516 503d 6153 223d f904 043d
00000210: 4049 513d 90e6 f53b 63ba caba 79b8 92bd
00000220: 5e3b 15bd 9271 87bc b8c5 06bc 164e ccbd
00000230: 889e e6bc 0be7 2cbd 9f4d 803c cd39 21bd
00000240: fcc5 73bd d803 9dbc 0008 743d bcc1 f43c
00000250: 3970 ddbc b0c8 a43d 8c95 173b f47e 83bd
00000260: 9a59 89bb 5a79 6fbd 1088 d13c ad42 94bd
00000270: 9643 82bd 1337 a8bd 2333 8cbc c077 493d
00000280: 0a62 c4bd 7e91 6f3d 103f 0f3d dcc1 45bd
00000290: c121 1abc 6ba7 08bd 04b9 ddbb a39b 25bd
000002a0: b69b 36bd 9780 fbbd 0e0d bebd bba7 73bc
000002b0: 4162 09bd 444a c93c 13e3 e93d d6a9 80bd
000002c0: d1ea 2a3d 5331 a7bd e048 423d 7e66 603d
000002d0: 6028 5f3c ed9e b63d b504 373d 5297 03bd
000002e0: e61d 8fbd 04da e3bc 1db5 9e3d 87d1 79bd
000002f0: b8e1 22bd 6d73 33bd 54be 52bc 79f0 523d
00000300: c4b4 3dbd cb60 a03d fc70 9e3b ebe4 e2bc
00000310: 4bd5 f8bc 6226 bc3d 95ee b03c ec78 a33c
00000320: 99ea 933c b8ad 653d 638b 3a3d 1972 82bd
00000330: 4560 8dbd 0d7f b6bd ac6e e2bc d0a0 3bbd
00000340: fe52 5bbd 9d23 933d 052b c4bd 1d60 b03d
00000350: a4b2 98bc 4fa8 febb 0889 c0bd 354b 9cbd
00000360: 6538 0f3d 9ac2 75bd bb06 56bb 6ad1 6dbc
00000370: 3027 77bd a6d7 7dbd c707 d4bc 5409 d53d
00000380: 76b3 86bd 6b3d 863d f4ca e13c 1ce5 243d
00000390: 44da 80bc d8e0 90bd f405 563d acf1 84bd
000003a0: 4bd9 1fbd 0d3e b7bb c3ba ac3c 0b1d 123c
000003b0: 233f 9239 74ed bbbd 04f0 b03d a211 553c
000003c0: 2472 7bbd 3099 8e3d 5521 c3bd 52d8 143b
000003d0: 7372 99bc 2134 3d3d 10bf c2bd eeaa 11bd
000003e0: 1f9f bb3c 8f78 9dbd 8c43 2d3d 6afa 8ebd
000003f0: 914e 873d 4cd5 0cbd 8e1a 09bc cc2f 9d3d

encoder.attn.out_linear.bias f4 [128]
-0.01072308 0.064431235 0.079317145 -0.064684786 0.040252358 -0.041095875 -0.012519944 0.08624484
-0.069345675 0.062446024 -0.07889095 -0.0005983991 0.060830865 0.053313736 0.02384073 -0.0672053
0.06777308 -0.021490738 -0.07598821 -0.054616407 0.006874539 -0.05859229 0.05865042 0.014683848
-0.05424811 0.05171234 -0.057909954 -0.056167156 -0.047749173 0.004144994 0.05187122 0.023517804
-0.004990857 0.051397685 -0.046258148 0.03232133 0.05993993 -0.07378702 -0.029267145 0.04570626
-0.082861274 0.06454395 -0.07198665 -0.03782273 -0.040909868 0.07998531 0.035545845 0.0692343
-0.021060966 0.04719037 -0.04221312 0.0010679966 0.072877795 0.040009458 -0.04970708 0.074551985
0.020851256 -0.033747103 0.021433486 0.0040142443 -0.0041088713 0.052902065 -0.022662697 0.030419488
0.08667638 0.06770525 -0.073750794 -0.0013119 -0.06723728 -0.010933735 -0.0137571385 0.09122866
0.03726513 0.03689427 -0.03323995 0.0034609477 0.0793757 -0.03467021 0.02257037 -0.09232909
-0.037773356 -0.021705193 0.045090478 0.054159362 -0.040268335 -0.034978278 -0.07247342 -0.077355705
0.07079629 -0.07071921 0.042527255 -0.008438432 0.07771443 0.0323597 -0.07787598 -0.080043696
0.0025923525 -0.094900504 0.02434314 0.042153414 0.06816909 -0.059719443 -0.051930215 -0.038313948
0.07080799 -0.0711898 -0.05011196 -0.00854249 -0.07994446 0.0728699 -0.020661334 -0.075112544
0.05675377 -0.07057352 0.011055599 -0.070013806 0.007048918 -0.073965654 0.030316832 -0.044126794
0.08896325 0.08271135 -0.07972288 -0.05307928 -0.0017375503 -0.06793759 0.015127562 0.044903196
00000000: dbaf 2fbc 86f4 833d 0771 a23d 7579 84bd
00000010: a8df 243d 2654 28bd 7420 4dbc 22a1 b03d
00000020: 1b05 8ebd 67c7 7f3d 9491 a1bd e2dd 1cba
00000030: c929 793d 815f 5a3d a24d c33c efa2 89bd
00000040: 9dcc 8a3d 580d b0bc b59f 9bbd 74b5 5fbd
00000050: d043 e13b 78fe 6fbd 6c3b 703d 8694 703c
00000060: 4433 5ebd 52d0 533d fd32 6dbd 880f 66bd
00000070: a394 43bd bbd2 873b eb76 543d 69a8 c03c
00000080: 588a a3bb 6186 523d 2f79 3dbd 5f63 043d
00000090: 9283 753d a61d 97bd a7c1 efbc 7d36 3b3d
000000a0: 2cb3 a9bd 9e2f 843d bd6d 93bd 02ec 1abd
000000b0: 1b91 27bd 57cf a33d 8598 113d b6ca 8d3d
000000c0: 0c88 acbc b04a 413d aae7 2cbd 05fc 8b3a
000000d0: f440 953d f5e0 233d a799 4bbd b6ae 983d
000000e0: 41d0 aa3c 673a 0abd 4795 af3c ec89 833b
000000f0: b6a3 86bb d6af 583d 1fa7 b9bc 4a32 f93c
00000100: 6383 b13d 0da9 8a3d a80a 97bd 0ff4 abba
00000110: b3b3 89bd 6923 33bc 9f65 61bc 17d6 ba3d
00000120: 52a3 183d 721e 173d 9d26 08bd 11d1 623b
00000130: ba8f a23d 5a02 0ebd 7fe5 b83c 0917 bdbd
00000140: 3cb8 1abd 17cf b1bc cbb0 383d 35d6 5d3d
00000150: 69f0 24bd 6245 0fbd f26c 94bd ab6c 9ebd
00000160: a5fd 903d 3cd5 90bd 0f31 2e3d 5941 0abc
00000170: be28 9f3d 9b8b 043d 717d 9fbd f3ed a3bd
00000180: 75e4 293b 325b c2bd 446b c73c 0fa9 2c3d
00000190: 3c9c 8b3d 609c 74bd c7b4 54bd 16ef 1cbd
000001a0: c803 913d f5cb 91bd 3342 4dbd cdf5 0bbc
000001b0: ecb9 a3bd d03c 953d f541 a9bc 9bd4 99bd
000001c0: a476 683d da88 90bd 8b22 353c 6663 8fbd
000001d0: 9cfa e63b 4e7b 97bd 015b f83c 4cbe 34bd
000001e0: 5d32 b63d 9164 a93d c045 a3bd a969 59bd
000001f0: 83be e3ba dd22 8bbd 98d9 773c 6aec 373d
