transformer-encoder-autoencoding/results/mlm_model.pth (torch, 871131 bytes, 20 tensors)

embedding.weight f4 [44, 128]
000000 89 7d 06 40 e6 cb fc 3f ba 93 9e 3f 7d ad 16 bf
       2.101412 1.9749725 1.2388833 -0.5885847
000010 3a 43 d4 3f d0 ff 06 bf 8a 62 68 bf e3 ec bf 3d
       1.6583016 -0.5273409 -0.9077536 0.093713544
000020 95 1c 83 3f df 3b 38 3f 83 ef 25 3f 3d 5f c3 3f
       1.0243098 0.71966356 0.6481859 1.526344
000030 11 9d 96 bf 22 12 36 bf b9 32 1e 3f 32 19 3f 3f
       -1.1766683 -0.7112142 0.61796147 0.7464782
000040 c4 84 f0 3e db 9e ab bf 2d e1 0b bf 6b 2e 34 3f
       0.46976292 -1.3407854 -0.54640466 0.7038333
000050 79 e8 64 3f bd 09 22 bd 6f fb 38 bf 30 3a 55 bf
       0.89417225 -0.03956007 -0.7225866 -0.8329191
000060 03 92 0e bd 47 9e 1d be 47 d0 76 3e 49 02 49 3f
       -0.034807216 -0.1539241 0.24102889 0.7851911
000070 b6 80 69 bf 14 5d 36 3e 67 2a 99 3e 4d ee 95 bd
       -0.9121202 0.17808944 0.29915163 -0.07320843
000080 14 e2 53 bf d2 ef c8 3e a7 cb 67 3f fa 36 8f bf
       -0.8276684 0.39245468 0.90545124 -1.1188653
000090 03 8f 51 be e6 15 9b bf 23 54 d2 bf 9f 00 74 3f
       -0.20464711 -1.2116058 -1.6431926 0.9531345
0000a0 b1 86 ad be 5f af c5 3f f5 6c d6 be 87 99 98 3d
       -0.33891824 1.5444144 -0.41880003 0.07451158
0000b0 e3 5c 60 bf 21 99 a2 bd b0 ae 8a be b4 02 ad bf
       -0.87641734 -0.07939363 -0.270864 -1.351645
0000c0 d8 74 9b bd 80 68 c2 bf cd 0e fa bd 83 8d d5 3d
       -0.075906456 -1.5188141 -0.12209854 0.10427382
0000d0 e4 f8 43 bf 1a f6 c7 3f 20 5e 8d 3e df eb 0e 3f
       -0.7655165 1.5621979 0.27610874 0.5582866
0000e0 59 b5 3c 3f d8 33 ee be 1c 88 a6 3f 02 20 5d 3f
       0.73714215 -0.4652393 1.3010287 0.86376965
0000f0 9f e5 5d bf 9a fc d1 3e 9a 81 a8 3f 87 92 72 3d
       -0.866785 0.41013032 1.3164551 0.05922177
000100 2e 12 99 3f 78 dd 42 bd b6 68 9c bd 8e 18 12 3f
       1.1958673 -0.04757449 -0.076371595 0.5706872
000110 8a 0a 9a bf e1 26 84 be 7e 65 f4 3b 45 b3 80 bf
       -1.2034466 -0.25810912 0.007458388 -1.0054709
000120 dc db e6 be 42 44 25 3d 09 fe 3c bf 19 43 f4 be
       -0.45089614 0.0403483 -0.73825127 -0.4770744
000130 e5 68 16 3f 3b e1 5d bf 5b db cf be 8a 0a e2 bd
       0.58753806 -0.866718 -0.40597042 -0.110371664
000140 3d ea b9 be 70 66 78 3f cd cc 85 be b8 9b 38 3f
       -0.36311522 0.9703131 -0.26132813 0.7211261
000150 e9 76 a3 3f 6b f1 0f bf 26 be 27 bf 17 9e a1 bf
       1.2770663 -0.5622775 -0.6552452 -1.262637
000160 db 73 47 bf 70 77 04 40 3b 2a 49 3f 01 91 d3 3e
       -0.77911156 2.06979 0.78580064 0.41321567
000170 95 5f 9f be da 9e fc 3f 51 bc 3c bf 3f 5f a6 3f
       -0.3112761 1.9735978 -0.7372485 1.2997817
000180 15 ec 8b be 1f dd ce bf 20 fd 06 3d 0e 2f d1 3e
       -0.27328554 -1.6161231 0.032956243 0.40856212
000190 f0 ae c1 3e 75 7c a2 3e 6f 92 45 bf 0d d5 a7 3e
       0.3782878 0.31735578 -0.77176565 0.32779732
0001a0 e8 f1 56 3f 65 66 b5 be 29 21 72 be 6a db 32 3f
       0.8396287 -0.35429683 -0.23645462 0.6986605
0001b0 4d 6c ed bf ca 61 4d 3f b6 44 a8 3f d7 43 29 3d
       -1.8548676 0.8022734 1.3145969 0.041324463
0001c0 30 0a be bf 9b f6 ab 3f 92 e9 80 3d 10 27 ad 3e
       -1.4846859 1.3434633 0.0629455 0.33818865
0001d0 f1 b0 4b bf bb d7 ea be eb 5b ab be 4f ed 46 3f
       -0.79566866 -0.45867714 -0.33468565 0.77705854
0001e0 47 22 9e 3f fc e7 90 3d dd 34 00 40 11 f8 9c 3f
       1.2354211 0.070754975 2.0032265 1.2263204
0001f0 3e e5 9c 3e b7 43 32 3e da 48 57 bf 8f 0d 26 bf
       0.30643648 0.17408644 -0.8409554 -0.6486444
000200 1b 99 cc 3f 90 5a 0f bf f0 01 21 bf 12 69 d2 3f
       1.5984224 -0.5599756 -0.6289358 1.6438315
000210 cd 0c e0 bd e3 8c 62 3f a9 51 bd be 97 1a 94 3f
       -0.109399416 0.88496226 -0.36976364 1.1570615
000220 23 9f 0d 3c 99 ce d9 3d 02 85 70 be a9 51 e3 3f
       0.008643898 0.106351085 -0.23488238 1.7759296
000230 5b 5d 49 3c 3e 54 4c bf 6a 2c 72 bf 82 ad 62 3f
       0.012290324 -0.79816043 -0.9459902 0.88546
000240 c5 6f 92 3f 88 7b b8 3d cb fb 70 be 62 9c 7e bf
       1.1440359 0.09007937 -0.23533551 -0.9945737
000250 5d 4f 43 3f 04 d8 42 bf 4d f8 6f 3f 6d 50 9e 3e
       0.76292974 -0.76110864 0.9373825 0.30920735
000260 ae 0e 07 bf db a1 02 3e 85 14 90 3f 0a 4c cb 3f
       -0.52756774 0.12757055 1.1256262 1.588258
000270 f0 a3 af bf 1a cd 29 bf f3 c1 2d 3f 4c 6f 37 3f
       -1.3721905 -0.66328585 0.6787407 0.716542
000280 92 08 1b bf b8 c6 36 3f ce 4d d9 3d 5f ba 76 bf
       -0.6055995 0.7139697 0.10610543 -0.9637813
000290 d1 22 87 3f c5 26 9d 3e 86 c6 0d 3f 12 7f e9 3f
       1.05575 0.3069364 0.5538105 1.8241904
0002a0 32 c1 cb 3f 8f 66 29 bf c5 8f fa 3f 51 85 75 39
       1.5918334 -0.66172117 1.9575125 0.00023414685
0002b0 9a 82 0b be 0c cc 75 bf 92 df a8 3f d0 09 39 bf
       -0.1362404 -0.96014476 1.3193228 -0.722806
0002c0 ed 9d 8f be 76 2b 89 3f 79 45 be bf 1e cb f6 bf
       -0.28050175 1.0716388 -1.4864951 -1.9280736
0002d0 fd 15 1a bf 45 c5 01 40 be 2c 46 3f dd 5d 13 bb
       -0.601898 2.0276654 0.7741202 -0.0022486367
0002e0 78 78 a8 bf f3 86 2b be 49 8a 99 bf fb 13 1b bf
       -1.3161764 -0.16750698 -1.1995326 -0.6057736
0002f0 bb 34 cc bf 8c ef 83 3f c6 af 96 be ff cb 0d be
       -1.5953592 1.0307479 -0.2943098 -0.1384735
000300 21 05 72 be 83 6c be 3f be 56 96 bf 57 f0 53 bf
       -0.23634769 1.4876865 -1.1745222 -0.82788604
000310 d8 2d 31 3f d2 c4 ab 3f b9 e3 4f bd 58 c2 e1 bf
       0.69210577 1.341944 -0.050754283 -1.7637434
000320 0f b8 ce bf ca 22 ed bc 8c 8f d9 3f 80 c3 59 3f
       -1.614992 -0.028947253 1.6996932 0.85063934
000330 51 33 c4 bf 85 db 21 3e fa aa 69 be 06 33 a4 3e
       -1.532816 0.15806396 -0.22819129 0.32070178
000340 ed 60 cb 3f 38 4d 2e 3e bb 63 6e 3f e1 dd 39 40
       1.5888954 0.17021644 0.93120927 2.9041674
000350 79 5e 99 3e f1 99 05 bf f3 30 57 bf 26 c9 e2 bd
       0.2995489 -0.5218802 -0.84059066 -0.11073522
000360 6e b3 34 bf fb 7d 23 bf 6d 6e 52 bf ba cc 3d bd
       -0.7058629 -0.63864106 -0.82199746 -0.04633782
000370 f5 63 d5 3d 73 6d f8 3e 4a 60 44 bf 73 77 94 3f
       0.10419456 0.48521003 -0.76709425 1.1598953
000380 54 cd 87 3e c6 c9 76 bf b0 20 04 c0 d4 09 11 3e
       0.2652384 -0.9640163 -2.064495 0.14163905
000390 4d ac a7 3e c7 e6 65 3f 93 90 22 40 2b 7e e7 3e
       0.32748643 0.89805263 2.540074 0.45213446
0003a0 6e a6 14 3f 29 09 68 3f b7 eb 13 bf 85 70 b3 3f
       0.5806645 0.9063898 -0.5778155 1.4018713
0003b0 f2 97 6a bf a2 37 ba 3e bd 75 41 3e 8b 68 ff 3e
       -0.916381 0.3637057 0.1889257 0.49884447
0003c0 76 50 80 bf b0 c5 38 bf fb 4c 83 bf 0a 76 c3 bf
       -1.0024555 -0.7217665 -1.0257868 -1.5270398
0003d0 62 46 e7 3e a2 b8 0f bf da 46 a4 bf 49 4a 9d bf
       0.45170885 -0.561411 -1.2834122 -1.2288295
0003e0 3f 40 8c 3f a4 66 e5 3f 0b 91 00 be f2 43 df 3f
       1.0957106 1.7921948 -0.1255533 1.744261
0003f0 32 1f 9d be 26 49 9b 3f e3 9c 3c bf c1 49 fb 3f
       -0.30687863 1.2131698 -0.7367689 1.9631883

pos_encoder.pe f4 [1, 50, 128]
000000 00 00 00 00 00 00 80 3f 00 00 00 00 00 00 80 3f
       0.0 1.0 0.0 1.0
000010 00 00 00 00 00 00 80 3f 00 00 00 00 00 00 80 3f
       0.0 1.0 0.0 1.0
000020 00 00 00 00 00 00 80 3f 00 00 00 00 00 00 80 3f
       0.0 1.0 0.0 1.0
000030 00 00 00 00 00 00 80 3f 00 00 00 00 00 00 80 3f
       0.0 1.0 0.0 1.0
000040 00 00 00 00 00 00 80 3f 00 00 00 00 00 00 80 3f
       0.0 1.0 0.0 1.0
000050 00 00 00 00 00 00 80 3f 00 00 00 00 00 00 80 3f
       0.0 1.0 0.0 1.0
000060 00 00 00 00 00 00 80 3f 00 00 00 00 00 00 80 3f
       0.0 1.0 0.0 1.0
000070 00 00 00 00 00 00 80 3f 00 00 00 00 00 00 80 3f
       0.0 1.0 0.0 1.0
000080 00 00 00 00 00 00 80 3f 00 00 00 00 00 00 80 3f
       0.0 1.0 0.0 1.0
000090 00 00 00 00 00 00 80 3f 00 00 00 00 00 00 80 3f
       0.0 1.0 0.0 1.0
0000a0 00 00 00 00 00 00 80 3f 00 00 00 00 00 00 80 3f
       0.0 1.0 0.0 1.0
0000b0 00 00 00 00 00 00 80 3f 00 00 00 00 00 00 80 3f
       0.0 1.0 0.0 1.0
0000c0 00 00 00 00 00 00 80 3f 00 00 00 00 00 00 80 3f
       0.0 1.0 0.0 1.0
0000d0 00 00 00 00 00 00 80 3f 00 00 00 00 00 00 80 3f
       0.0 1.0 0.0 1.0
0000e0 00 00 00 00 00 00 80 3f 00 00 00 00 00 00 80 3f
       0.0 1.0 0.0 1.0
0000f0 00 00 00 00 00 00 80 3f 00 00 00 00 00 00 80 3f
       0.0 1.0 0.0 1.0
000100 00 00 00 00 00 00 80 3f 00 00 00 00 00 00 80 3f
       0.0 1.0 0.0 1.0
000110 00 00 00 00 00 00 80 3f 00 00 00 00 00 00 80 3f
       0.0 1.0 0.0 1.0
000120 00 00 00 00 00 00 80 3f 00 00 00 00 00 00 80 3f
       0.0 1.0 0.0 1.0
000130 00 00 00 00 00 00 80 3f 00 00 00 00 00 00 80 3f
       0.0 1.0 0.0 1.0
000140 00 00 00 00 00 00 80 3f 00 00 00 00 00 00 80 3f
       0.0 1.0 0.0 1.0
000150 00 00 00 00 00 00 80 3f 00 00 00 00 00 00 80 3f
       0.0 1.0 0.0 1.0
000160 00 00 00 00 00 00 80 3f 00 00 00 00 00 00 80 3f
       0.0 1.0 0.0 1.0
000170 00 00 00 00 00 00 80 3f 00 00 00 00 00 00 80 3f
       0.0 1.0 0.0 1.0
000180 00 00 00 00 00 00 80 3f 00 00 00 00 00 00 80 3f
       0.0 1.0 0.0 1.0
000190 00 00 00 00 00 00 80 3f 00 00 00 00 00 00 80 3f
       0.0 1.0 0.0 1.0
0001a0 00 00 00 00 00 00 80 3f 00 00 00 00 00 00 80 3f
       0.0 1.0 0.0 1.0
0001b0 00 00 00 00 00 00 80 3f 00 00 00 00 00 00 80 3f
       0.0 1.0 0.0 1.0
0001c0 00 00 00 00 00 00 80 3f 00 00 00 00 00 00 80 3f
       0.0 1.0 0.0 1.0
0001d0 00 00 00 00 00 00 80 3f 00 00 00 00 00 00 80 3f
       0.0 1.0 0.0 1.0
0001e0 00 00 00 00 00 00 80 3f 00 00 00 00 00 00 80 3f
       0.0 1.0 0.0 1.0
0001f0 00 00 00 00 00 00 80 3f 00 00 00 00 00 00 80 3f
       0.0 1.0 0.0 1.0
000200 a4 6a 57 3f 41 51 0a 3f 1c 00 43 3f 28 dd 25 3f
       0.84147096 0.54030234 0.7617204 0.6479058
000210 ce 7a 2e 3f b0 54 3b 3f 3a cd 1a 3f aa e4 4b 3f
       0.68156135 0.731761 0.604694 0.7964579
000220 ba 7d 08 3f 0d 94 58 3f e3 96 ef 3e d5 3d 62 3f
       0.53316844 0.8460091 0.46794805 0.883756
000230 f0 90 d1 3e c7 92 69 3f 61 d7 b6 3e a9 1e 6f 3f
       0.4093089 0.9123959 0.35711196 0.9340616
000240 3e 39 9f 3e 6b 4e 73 3f 17 76 8a 3e 11 76 76 3f
       0.3109836 0.9504153 0.2704322 0.96273905
000250 25 8f 70 3e f1 d5 78 3f 61 ce 50 3e 09 9f 7a 3f
       0.23492105 0.9720145 0.20391227 0.9789892
000260 3a 23 35 3e 83 f6 7b 3f e3 10 1d 3e 7c f8 7c 3f
       0.17689219 0.9842302 0.15338473 0.9881666
000270 f3 25 08 3e 28 ba 7d 3f 5c f9 eb 3d 84 4b 7e 3f
       0.13295726 0.99112177 0.11522171 0.9933398
000280 76 75 cc 3d 98 b8 7e 3f bf 20 b1 3d 6e 0a 7f 3f
       0.099833414 0.9950042 0.08648824 0.9962529
000290 36 6f 99 3d d1 47 7f 3f 60 e6 84 3d de 75 7f 3f
       0.07491915 0.9971896 0.06489253 0.99789226
0002a0 ae 36 66 3d 68 98 7f 3f 12 62 47 3d 4f b2 7f 3f
       0.05620449 0.9984193 0.04867751 0.9988145
0002b0 fa ac 2c 3d bd c5 7f 3f c5 8a 15 3d 4f d4 7f 3f
       0.04215715 0.999111 0.036509294 0.9993333
0002c0 5b 81 01 3d 3c df 7f 3f a4 4d e0 3c 6e e7 7f 3f
       0.031617504 0.99950004 0.027380772 0.9996251
0002d0 a5 3e c2 3c 93 ed 7f 3f 82 36 a8 3c 2f f2 7f 3f
       0.023711512 0.99971884 0.020533804 0.9997892
0002e0 42 ab 91 3c a3 f5 7f 3f a3 4a 7c 3c 3b f8 7f 3f
       0.017781857 0.99984187 0.015398654 0.99988145
0002f0 49 7a 5a 3c 2c fa 7f 3f fa 31 3d 3c a1 fb 7f 3f
       0.013334819 0.99991107 0.01154756 0.9999333
000300 57 d6 23 3c b9 fc 7f 3f ba e0 0d 3c 8b fd 7f 3f
       0.009999833 0.99995 0.008659536 0.9999625
000310 16 b9 f5 3b 28 fe 7f 3f b3 c9 d4 3b 9e fe 7f 3f
       0.0074988706 0.99997187 0.006493771 0.9999789
000320 5a 44 b8 3b f7 fe 7f 3f a3 91 9f 3b 39 ff 7f 3f
       0.0056233825 0.9999842 0.004869656 0.99998814
000330 5a 2e 8a 3b 6b ff 7f 3f e9 51 6f 3b 90 ff 7f 3f
       0.0042169513 0.9999911 0.0036517328 0.9999933
000340 1c 3e 4f 3b ac ff 7f 3f fe 76 33 3b c1 ff 7f 3f
       0.0031622713 0.999995 0.0027384157 0.99999624
000350 03 69 1b 3b d1 ff 7f 3f 67 94 06 3b dd ff 7f 3f
       0.0023713715 0.9999972 0.0020535232 0.9999979
000360 20 15 e9 3a e6 ff 7f 3f 54 d7 c9 3a ec ff 7f 3f
       0.0017782785 0.99999845 0.0015399256 0.9999988
000370 8a c9 ae 3a f1 ff 7f 3f 09 5c 97 3a f5 ff 7f 3f
       0.001333521 0.9999991 0.0011547814 0.99999934
000380 6d 12 83 3a f8 ff 7f 3f e2 01 63 3a fa ff 7f 3f
       0.0009999998 0.9999995 0.00086596434 0.99999964
000390 89 94 44 3a fb ff 7f 3f 43 3b 2a 3a fd ff 7f 3f
       0.000749894 0.9999997 0.0006493816 0.9999998
0003a0 13 6a 13 3a fd ff 7f 3f ab 4f ff 39 fe ff 7f 3f
       0.0005623411 0.9999998 0.00048696747 0.9999999
0003b0 21 17 dd 39 ff ff 7f 3f d7 74 bf 39 ff ff 7f 3f
       0.00042169637 0.99999994 0.0003651741 0.99999994
0003c0 61 cb a5 39 ff ff 7f 3f 75 92 8f 39 ff ff 7f 3f
       0.00031622782 0.99999994 0.00027384204 0.99999994
0003d0 0d a8 78 39 00 00 80 3f e2 53 57 39 00 00 80 3f
       0.00023713727 1.0 0.00020535247 1.0
0003e0 53 77 3a 39 00 00 80 3f 19 79 21 39 00 00 80 3f
       0.00017782794 1.0 0.00015399269 1.0
0003f0 6d d4 0b 39 00 00 80 3f dd 2c f2 38 00 00 80 3f
       0.00013335208 1.0 0.00011547816 1.0

encoder.attn.q_linear.weight f4 [128, 128]
000000 42 56 c6 3d a2 39 cb bd 0b 40 17 bd 00 bb 6b 3d
       0.09684421 -0.09923102 -0.03692631 0.057551384
000010 ef cd 17 ba 29 03 24 3c 59 6d 82 bd 5d c8 92 3d
       -0.00057908794 0.010010519 -0.06368513 0.071671225
000020 8e 35 88 ba 14 d0 89 3c d0 ee 85 3d 54 20 e0 3c
       -0.0010391937 0.016822852 0.065396905 0.027359165
000030 88 7b 11 3d 22 7a a5 bd 54 a7 ae 3c 6e 3e 10 3d
       0.0355182 -0.080799356 0.021320023 0.035215788
000040 52 61 f0 3c fd 20 aa bc 44 dc cc bc 24 2d 79 bc
       0.029343281 -0.020767683 -0.025007375 -0.015208516
000050 4e ab d7 bc cb 1e 41 3d ec b5 0f 3c 6c 0a 20 3d
       -0.026326802 0.047148507 0.008771401 0.03907244
000060 12 44 79 3d dd fb b6 bc b8 ea ea 3d ee 5b 2a 3d
       0.060855933 -0.022336895 0.1147055 0.041591577
000070 bb 02 b0 3c b1 ae c0 bd 7e d7 47 bd 1f 0e 59 3d
       0.021485677 -0.0940832 -0.048789494 0.052991983
000080 7d 90 22 bd 37 1d 30 bc 3f 6f 93 bd af 92 48 bc
       -0.039688576 -0.010749153 -0.07198953 -0.012242003
000090 d3 48 92 bd b5 6e 76 3d 4e fb f8 3d f3 c5 04 bd
       -0.07142796 0.060164172 0.121573076 -0.03241534
0000a0 ea e3 9f bd e1 84 8f bd 6f f3 fb 3c 2e 22 4e 3c
       -0.07807143 -0.070077665 0.030755727 0.012581391
0000b0 80 ee b1 3d 8b 3e 45 3d 10 8d c7 3d fb 49 70 3d
       0.086880684 0.04815535 0.097437024 0.058664303
0000c0 30 73 5a bd c7 d7 5d bd 4f b6 55 3d a0 cc d4 bd
       -0.053332508 -0.05416086 0.052175816 -0.103905916
0000d0 f1 41 1c bd 7b 78 80 3d 9b a7 bb 3d 9a 8c 2e bd
       -0.038148824 0.0627298 0.091628276 -0.042614557
0000e0 bf 45 17 bd dd bd a9 bb 84 61 a9 bd 52 50 4b bd
       -0.03693175 -0.005180104 -0.08270553 -0.049637146
0000f0 d9 b4 bf bd 69 79 ad 3c b9 df dd bc 0e 99 72 3d
       -0.09360666 0.021176057 -0.027084218 0.059227996
000100 97 b6 48 bd a5 60 64 3d c6 ed 5e 3d 19 e4 d4 3c
       -0.049002256 0.05575623 0.054425977 0.025987672
000110 8e fe ff 3d b6 6f bf 3d 31 71 8d b9 bb ee 12 bb
       0.12499724 0.09347479 -0.0002697795 -0.0022420126
000120 df 61 85 bd ce 29 db 3b 7b ae ae 3d 89 56 78 3d
       -0.06512808 0.006688333 0.08529373 0.0606294
000130 fe 05 a4 bd 1c b9 f4 ba d1 1d 83 3d 68 7b c7 bd
       -0.080089554 -0.001867089 0.064021714 -0.09740335
000140 11 68 23 bc 0d 60 16 bd 21 74 cc 3d 7a c5 61 bd
       -0.009973542 -0.036712695 0.09983087 -0.05511997
000150 3e de ac 3d 78 05 a0 3d fe b5 e8 3b 58 10 aa bd
       0.08440827 0.07813543 0.0071017733 -0.083038986
000160 0a c1 d9 3c 1a c1 02 bd a2 d8 54 bc e2 67 09 3d
       0.026581306 -0.031922437 -0.012991102 0.033546336
000170 88 02 73 bd 3d c2 5e bc ce 81 5b 3d e4 21 cd 3c
       -0.059328586 -0.013596115 0.05359059 0.025040574
000180 21 b4 1b bd f8 94 2a bd 92 dd 21 bd df f8 cb 3d
       -0.03801358 -0.041645974 -0.039517947 0.09959578
000190 83 8f bc bc c7 68 97 3d cd a8 eb 3d 02 a2 a1 3d
       -0.02301765 0.073930316 0.115068056 0.07892229
0001a0 e7 30 b5 3d 84 f7 a5 3c cd 4d 13 bd e8 fd 0c 3c
       0.08847218 0.020259626 -0.03596287 0.008605458
0001b0 a1 17 ab 3a 6d 96 dc bc ff 35 1f 3d 80 e0 9f 3d
       0.0013053307 -0.026927197 0.038869854 0.07806492
0001c0 ba cd 9f bd fc ee 5c 3d e5 24 2e bd ed ef 79 3d
       -0.07802911 0.05393885 -0.042515654 0.061019827
0001d0 2f 84 a5 3d 53 dc 8a bb 8b e1 58 bc 0d fa e4 3c
       0.08081853 -0.0042376905 -0.013237367 0.027951265
0001e0 2c e9 95 3c 52 1f 84 bd 30 2d 05 3d b2 5b d0 3d
       0.018299662 -0.064512864 0.032513797 0.101737395
0001f0 d4 ad 0c 3d c9 21 b2 3d 3d 56 71 3d 25 5d 07 3b
       0.034345463 0.0869785 0.058920134 0.0020654884
000200 b6 d2 bb 3c 9b d7 5f bc 70 cc 39 3c d7 66 dc 3d
       0.022927623 -0.013662244 0.011340246 0.10761803
000210 3b 91 e3 bd 29 9d f0 3d 3a 88 5a bb 00 45 a8 bd
       -0.11111685 0.11748726 -0.0033345358 -0.08216286
000220 41 9d f5 bc 6a 56 98 3d cc 91 a7 bd e2 0b f0 ba
       -0.029982211 0.07438357 -0.081821054 -0.0018314088
000230 89 df 9e 3d f5 ec 71 3d 4f 6f 7d 3c bd 8b 42 3d
       0.0775748 0.05906387 0.015468433 0.047496546
000240 c5 e4 94 bd 4c c7 16 3d 4e c9 1c 3b 76 3e 7d bd
       -0.07270197 0.036811158 0.0023923698 -0.061827146
000250 d6 95 2a 3d a2 6b 50 bd 24 4d 4b 3d c6 f8 7e 3d
       0.0416468 -0.050883897 0.049634114 0.062248968
000260 6e f0 03 3d 36 37 81 3d 52 94 ad 3d 71 c1 39 bd
       0.032211713 0.06309359 0.084755555 -0.045350496
000270 c7 8d 7e 3c 2d c9 ae 3d 41 58 a8 bd aa 95 02 bd
       0.015536732 0.08534465 -0.08219958 -0.031881012
000280 8a e1 26 bd f6 64 83 3c 04 6b a9 bd 4e 6d e4 bc
       -0.040742435 0.016039353 -0.08272365 -0.027884152
000290 36 c2 3c 3d 63 8b a2 bd 6c c2 57 3d dd 94 2a bd
       0.04608365 -0.07936742 0.05267565 -0.041645873
0002a0 a8 0e 62 bd 17 75 23 bd 58 03 b9 bd fe 35 cf 3c
       -0.05518976 -0.039906587 -0.09033841 0.0252943
0002b0 fa 06 77 bd d6 a3 ab 3d ce 89 14 bd b5 33 89 3d
       -0.060309388 0.083808586 -0.036264233 0.066993155
0002c0 a5 52 9b bd 1b a5 af 3d bb 31 0d bd 77 9e 40 3d
       -0.075841226 0.08576413 -0.034471255 0.047026124
0002d0 68 0f 00 bd 3d e7 83 bb 2b 7b e9 bb 96 cd 8c 3a
       -0.031264693 -0.0040253685 -0.0071252785 0.0010742422
0002e0 6c c7 08 bd 0b e9 04 3d 65 2c a9 bc 4c 6d e8 bb
       -0.03339331 0.03244881 -0.020651052 -0.0070931073
0002f0 c8 85 90 bd 27 77 b1 3c 82 62 9c 3c e2 c5 2e bd
       -0.07056767 0.021663262 0.019089941 -0.042669185
000300 0c 7d 07 3b 2b c4 a9 3c 48 92 68 bd e0 10 43 3d
       0.00206739 0.020723423 -0.05678013 0.047623515
000310 8f 38 a9 3d 6b b1 28 3d 87 f2 f8 bc 67 a2 b5 3c
       0.08262741 0.041184824 -0.030389084 0.022172166
000320 07 32 92 bd 77 64 0b 3d 03 3d 56 bc 59 8b 8d 3d
       -0.07138448 0.034031358 -0.01307607 0.06911344
000330 a2 e2 36 3d 44 cc 0e 3d 8b 37 2e 3c fe 85 88 bd
       0.044649728 0.03486277 0.01063336 -0.06666182
000340 01 8b 53 bc 53 26 80 3d 84 61 9e bd 1c d8 8e bb
       -0.012911559 0.0625731 -0.077334434 -0.0043592583
000350 67 c8 4c bd 0a d0 a0 bd a5 61 a0 bd 82 14 4a bd
       -0.049995806 -0.0785218 -0.07831124 -0.049335964
000360 25 4e 27 3b 47 ad e7 3c 6b 76 a3 3d 6b 7c 3e bd
       0.0025528756 0.028280867 0.07981571 -0.046505373
000370 9e c7 7e 3d cb 7a e0 3c 96 60 95 3d ec dc 25 bd
       0.06220209 0.027402302 0.07293813 -0.04049389
000380 f2 3f 32 3d 35 18 69 bb f3 e3 b2 3c 03 44 6e bd
       0.043518014 -0.0035567407 0.02183721 -0.05817033
000390 73 3a f7 bb 7c 7a 24 bc 10 59 18 3d ba 17 1a bd
       -0.0075448095 -0.010038968 0.03719431 -0.037620284
0003a0 5b 00 56 3d 30 3d 42 3d 1e 21 d9 3c 14 6e 93 bc
       0.052246433 0.047421634 0.02650505 -0.017996825
0003b0 2c f5 e7 bc fc 97 8a bd a7 f4 82 bd f6 3c 77 3d
       -0.02831515 -0.0676727 -0.0639432 0.06036087
0003c0 e3 39 6c 3d 9e b7 2c 3d 41 3d 8f bd d4 ae 4e bd
       0.057672393 0.0421673 -0.06994105 -0.050459698
0003d0 b7 f7 bf 3d 86 3f 8e bd c4 ae 13 bd aa d2 81 bd
       0.0937342 -0.0694571 -0.03605534 -0.06339009
0003e0 1a d9 9b 3d 1a 21 cc bb 49 60 20 3d da 4f 4a bd
       0.07609768 -0.006229532 0.039154325 -0.04939256
0003f0 ee 73 06 bb 8b b7 a0 3d 3d 9a 91 3d c0 6f 92 bd
       -0.0020515877 0.07847508 0.07109497 -0.07150221

encoder.attn.q_linear.bias f4 [128]
000000 ca 23 80 bd 38 b6 4e bd 09 27 e1 3c ab 32 b2 3d
       -0.06256826 -0.050466746 0.027484434 0.087010704
000010 55 67 01 bc f3 03 04 3d 31 71 71 3d 9b 5f 1b 3d
       -0.007898171 0.03223033 0.05894584 0.037932973
000020 5b 3d 4b 3d 3b 3e 8c 3d 83 77 c7 3c 87 8b 1c bd
       0.04961906 0.06847807 0.02434898 -0.038219
000030 cc 0d aa 3d 61 80 63 bd 8c 40 40 bd 63 24 9c 3d
       0.08303413 -0.055542354 -0.046936557 0.07624128
000040 3f e0 15 bd e9 a7 b0 3c 72 d8 09 bd 94 6b 57 3d
       -0.03659081 0.02156444 -0.033653684 0.05259283
000050 46 9b 25 bd 7c a7 01 3c de f0 7d 3d f0 39 be bd
       -0.040431283 0.007913467 0.061997287 -0.092883945
000060 a1 21 83 bd 7c 92 a3 3d 29 c1 7e bd 70 49 b7 bd
       -0.064028986 0.07986924 -0.06219593 -0.08949554
000070 e2 85 9b bd 15 dd 8e bd 97 ea 3b 3d a4 10 b3 bd
       -0.075938955 -0.06975762 0.04587802 -0.08743408
000080 a3 53 23 3d 91 3a 04 bd e9 18 d3 3c d0 6f 5d 3d
       0.039874684 -0.032282416 0.025768714 0.05406171
000090 a6 bb 46 3d 9d d6 a7 bc ec 60 23 bd 9d a1 21 bd
       0.0485188 -0.020488078 -0.039887354 -0.039460767
0000a0 46 65 00 bd 0c 6d b0 3c 90 20 b8 bc b3 cc 8c bd
       -0.031346582 0.021536373 -0.022476465 -0.06874981
0000b0 8f ca c7 bb 48 29 37 3d 2d 40 11 3d 32 ef 8b 3d
       -0.006097145 0.044717103 0.035461593 0.06832732
0000c0 69 e3 12 3c 8b 07 2f 3d 93 7d fc bc 75 98 30 bd
       0.008965352 0.042731803 -0.030821597 -0.043114144
0000d0 65 19 8f 3d 95 81 6d 3c 88 aa 9b bb da 24 36 3d
       0.069872655 0.014496227 -0.0047505535 0.04446874
0000e0 47 ab 55 bd 3f ba 5d 3d 55 ad 6f bd bb 90 89 bd
       -0.052165296 0.054132696 -0.05851491 -0.06717058
0000f0 db 9d c7 bd a1 d4 80 3d fe 55 c6 3d 50 86 25 bc
       -0.097469054 0.06290556 0.096843705 -0.010102823
000100 dc 79 91 3d 64 4c 57 3c e8 35 c6 3b 0a 18 bb 3c
       0.07103321 0.013140772 0.0060489066 0.022838611
000110 6c a9 83 3d 7a 13 b7 bd 37 cd 91 bc c8 1e 32 bc
       0.06428799 -0.08939262 -0.01779805 -0.010871597
000120 e8 1b 26 3d 9f cc a3 bd 2b a0 94 3d c7 af 97 bd
       0.040553957 -0.07998013 0.07257112 -0.07406574
000130 9c d2 ca bd b3 94 8d bc f1 38 8a bc 81 55 f0 bc
       -0.09903452 -0.01728282 -0.016872855 -0.029337646
000140 e7 9a 98 bc 77 d7 72 3c e2 36 0f bd b6 bd 3e 3d
       -0.01862855 0.014821879 -0.03496445 0.04656764
000150 ab 6c fd 3c 9f 06 b9 3d 21 bb 7e bd 97 75 8a 3c
       0.030935606 0.09034466 -0.06219018 0.016901774
000160 0f 8d b4 3c 2e 1b 4a bd 72 62 38 bd ef 9f 7b 3d
       0.022039918 -0.049342327 -0.04501576 0.06143182
000170 6a e3 d6 3c 59 0a 76 3d 1f 2c c9 bc 70 9a 52 bd
       0.026231486 0.060068462 -0.024557171 -0.051416814
000180 16 57 2a 3c 3c 6a 87 bd 04 30 c0 3c 7d a2 34 bd
       0.0103967395 -0.066120595 0.023460396 -0.044100273
000190 b9 1c 87 3d 38 15 77 3d 35 c9 91 bd 93 28 97 bd
       0.06597275 0.06032297 -0.07118455 -0.07380786
0001a0 7b 67 3d 3d 8c bd 11 3d 35 93 5c bc d4 a3 a7 3c
       0.046241265 0.035581157 -0.013462831 0.020463862
0001b0 9a 40 1a 3d ee ea 0e 3d 1b 45 e9 3c 0d ae ad 3c
       0.037659265 0.034892015 0.028475335 0.021201158
0001c0 ca f7 71 3a 4a 27 5d 3b 04 78 a3 3d 04 e8 99 3d
       0.0009230344 0.0033745342 0.079818755 0.075149566
0001d0 f8 07 5c bd 1d 73 21 bc dc 3f 35 3b 8c 91 67 3d
       -0.053718537 -0.009854105 0.0027656471 0.05653529
0001e0 46 5c c9 bd 8b a3 6f bc 8a 85 91 3b ff 3d 8e bd
       -0.09832053 -0.014626394 0.004440968 -0.069454186
0001f0 0c a4 94 3c ff 35 93 3d 67 75 aa 3b a3 2d b3 3d
       0.01814463 0.07188033 0.0052019837 0.08748939

encoder.attn.k_linear.weight f4 [128, 128]
000000 77 54 3a 3d e3 b3 b6 bd 7f e6 1f bd 1c 14 b7 bd
       0.04549071 -0.089210294 -0.039038178 -0.089393824
000010 4a 80 57 3c 9a 88 91 3d e3 b1 67 bd c7 6c aa bd
       0.013153145 0.07106133 -0.05656613 -0.08321529
000020 cd f1 42 bd 77 01 b5 3d f0 31 d8 3d 2c c9 ca bc
       -0.04759388 0.0883817 0.105564 -0.02475413
000030 0c 0c 41 bd 6d 42 35 bd 82 64 48 3c ac 43 46 3d
       -0.04713063 -0.0442528 0.012230994 0.04840438
000040 f0 eb 60 3d c0 63 b9 3d 29 b2 2d 3d 85 ce af 3d
       0.054912508 0.09052229 0.042406235 0.08584312
000050 81 d4 8f 3c ea 55 ec 3c c8 4c a1 bd 40 ef 05 bd
       0.017557384 0.02884956 -0.07875973 -0.03269887
000060 54 fb 59 bd a2 04 05 bc 79 c6 a2 bc 1a 56 97 bc
       -0.0532182 -0.00811878 -0.01987003 -0.018473674
000070 59 6e 60 3d ee b0 03 3c 7b b0 87 bd f9 a2 02 bd
       0.054792736 0.008037789 -0.06625458 -0.031893704
000080 a5 8e 97 bc 42 80 32 bd ae 44 15 3d ad 33 a9 3d
       -0.018500635 -0.043579347 0.03644245 0.082618095
000090 f4 9a b7 bd b7 0b 89 bd 35 a8 4c bb db 11 4d 3d
       -0.08965102 -0.066916876 -0.003122819 0.050065856
0000a0 74 43 a7 bd d8 a4 79 3d e0 86 af bd 7e 3e 91 3c
       -0.081671625 0.060948223 -0.08570647 0.017729994
0000b0 80 57 81 3d 25 05 53 3d 23 7d bb bb e8 9f 72 bd
       0.063155174 0.051518578 -0.0057217046 -0.05923453
0000c0 bf 20 83 bd 1f 12 9c bd 32 4b 43 3c c8 30 39 3d
       -0.0640273 -0.07620644 0.011919783 0.045212537
0000d0 35 5a 2c 3d fd d6 0b 3d b6 9e 2a bd b4 44 ea 3c
       0.042078216 0.034140576 -0.041655265 0.028597213
0000e0 e4 12 d3 bd 51 40 46 bd 0a fe ee 3d 07 e8 30 3c
       -0.103063375 -0.04840118 0.11669548 0.010797507
0000f0 bf ab a9 3d 72 cf 97 3d ba e7 b6 3d 86 43 cb 3c
       0.08284711 0.07412614 0.08930917 0.024812471
000100 3c b3 7d 3c d9 e7 8e bd 8a 47 c2 bd e8 fb 53 3d
       0.015484627 -0.06977815 -0.09486301 0.05175391
000110 a9 6e c2 3d a9 fa 6b 3d e4 8f 56 3d 15 98 c8 3c
       0.09493763 0.057612095 0.05238332 0.02448658
000120 e8 ae 0a 3b 7d 92 72 bd 4d 87 0e 3c 28 4c 51 3d
       0.002116138 -0.059221733 0.00869925 0.05109802
000130 58 8d 17 3d 6f 73 b6 3d f1 a9 15 bc 7c 51 3e 3b
       0.03700003 0.08908736 -0.0091347555 0.0029040268
000140 83 c5 9b 3c 2f 22 d2 bd ac f3 6c 3c 74 57 1a 3c
       0.01901508 -0.10260426 0.014462393 0.0094202645
000150 1d 30 5a bd 97 36 0d bd d6 85 83 3d 9d 56 67 bd
       -0.05326854 -0.03447589 0.064220116 -0.056479085
000160 43 4d 8b 3c 81 2e 5c bc 44 9d 6f 3d 42 44 a6 3b
       0.017004615 -0.013438822 0.05849959 0.005074055
000170 5d da b7 3c 59 21 fe 3c d4 7e d3 bc 14 25 07 bb
       0.02244299 0.03102176 -0.025817312 -0.0020621466
000180 fd fb b0 bd eb d2 db bc 23 8a aa 3d c1 be 6f bd
       -0.08641813 -0.026833972 0.08327129 -0.058531526
000190 27 b8 b0 3d 7d 7e a4 bc df 29 cd bc df 79 52 3c
       0.08628874 -0.020079846 -0.02504438 0.012846439
0001a0 f6 aa a5 bc 93 ef 3b 3c 54 af cb bd 85 6c 16 3b
       -0.020223122 0.011470693 -0.099455506 0.0022952866
0001b0 9d bf 62 3d a8 5f a4 bd db e4 08 3d e7 75 95 bd
       0.055358518 -0.080260575 0.03342138 -0.07297879
0001c0 81 24 39 bd 58 68 c1 3d b5 75 16 3c 16 1f e8 bb
       -0.04520083 0.0944373 0.009183337 -0.007083784
0001d0 f1 c5 6e bd 2b e6 e3 bb 8c 3f fc bc 2c 85 37 bd
       -0.05829424 -0.0069549284 -0.03079202 -0.044804737
0001e0 a1 79 a4 3d 12 b7 ce 3a 74 30 3a 3d a9 0f 51 3d
       0.080310114 0.0015771112 0.045456365 0.051040325
0001f0 09 b7 3c bd cd 9e 84 3d 93 2c 70 3d 36 d5 13 bc
       -0.046072993 0.06475601 0.05863626 -0.009023001
000200 66 ee fa bc 07 25 af 3d c9 4a 85 bd 07 dd 01 bd
       -0.030631255 0.08551984 -0.06508405 -0.03170493
000210 06 34 7b bd ba 28 9c 3c 83 41 49 3c 71 b4 8a bd
       -0.06132891 0.019062389 0.012283686 -0.06772698
000220 a5 c8 13 bd 23 ef 30 3d bf db 2d bd c3 79 44 bc
       -0.03608002 0.04319681 -0.042445894 -0.011991921
000230 03 6d 14 bd a6 15 47 bd db 46 80 bd d0 6e a3 bd
       -0.036236774 -0.04860463 -0.062635146 -0.0798012
000240 43 10 8d 3d 3e c3 1f bd ec e5 b6 bc b6 4c 21 3d
       0.06887867 -0.039004557 -0.022326432 0.039379798
000250 7e 77 22 bc 9e 3c cd 3c 74 ef 86 3d c8 c0 26 3d
       -0.0099161845 0.025053319 0.06588641 0.040711194
000260 4a 7a 17 bd 32 43 f4 3b e9 05 48 3d cd 31 ba 3d
       -0.03698186 0.0074542994 0.04883376 0.0909153
000270 af c6 54 bd 0a 17 82 3c d1 11 88 ba 18 36 e7 bc
       -0.051947292 0.015880127 -0.0010381286 -0.028224036
000280 eb 87 5e 3c 44 ee d8 3d 22 88 0b 3d f7 10 aa 3d
       0.01358221 0.105923206 0.034065373 0.08304017
000290 06 6e 86 3d 48 90 73 bc e2 3e be 3d a6 93 58 3d
       0.06563954 -0.014865942 0.09289338 0.052875184
0002a0 13 a8 ec bc ac ea d0 bd 5c ce 29 bd f2 82 64 ba
       -0.028888738 -0.1020101 -0.041456565 -0.0008717022
0002b0 dd 78 36 3d 9a 03 07 3d bd 74 b6 bd dd bc 40 3d
       0.044548858 0.03296242 -0.08908985 0.047055114
0002c0 9a 9b 1f 3d 87 bb 42 bd bd 6c df 3c 03 96 0b 3d
       0.038966753 -0.04754212 0.02727353 0.03407861
0002d0 55 9c 82 3c 40 9c a1 3b c1 49 39 bd ac 85 ee ba
       0.015943686 0.0049319565 -0.045236353 -0.0018197796
0002e0 52 4d 85 3d 01 1e 7d bd 60 f1 0b bd 7d d0 9e 3c
       0.06508888 -0.061796192 -0.03416574 0.019386524
0002f0 fd 3a 85 bc a6 1f 87 bd ce fb 50 3d 06 3e 8d bc
       -0.01626348 -0.06597833 0.05102139 -0.01724149
000300 99 55 72 bc f3 61 8f 3d 69 31 ee bc 23 17 7b 3d
       -0.014790916 0.07001104 -0.029076295 0.06130136
000310 6d 49 ff 3c 83 f3 f5 bc 7a 65 05 3d e5 61 93 bb
       0.031162942 -0.030023342 0.03256748 -0.004497754
000320 23 9e 85 3d 3b f6 97 bd ce 95 a0 bd a9 54 d1 bd
       0.06524303 -0.074200116 -0.07841073 -0.10221226
000330 de b3 4f 3d ec 83 f1 3c 7c 9e cf 3d 1e a0 a4 3d
       0.050708644 0.02948185 0.1013765 0.080383524
000340 0a ff 6c bd 7e 59 57 bd 0d 53 ee 3c e3 02 c2 bd
       -0.05786041 -0.05257558 0.029092336 -0.09473207
000350 4a d3 98 bc 21 a4 8e bd 22 a7 1c bd 8c 23 8a 3d
       -0.018655438 -0.06964899 -0.038245328 0.06745061
000360 c5 07 e0 bc 76 7f 9f 3d 1b fa 7a 3d 3a 65 b5 3d
       -0.027347455 0.07787983 0.061273675 0.08857198
000370 78 a4 90 3d 32 da e7 3b 55 b8 16 bd 2c 9a 93 3a
       0.0706262 0.0070755715 -0.036796886 0.0011261157
000380 1c 15 b9 3c 64 4c cc 3d d3 5c e3 3c 45 2e 99 bb
       0.022593074 0.09975508 0.027754223 -0.004674705
000390 e3 3d 23 3d 96 15 8c 3d ad 12 10 bd 21 17 e5 3d
       0.03985394 0.06840055 -0.03517406 0.11186052
0003a0 6e ad 8b 3d c8 eb 3b 3d ec 3d 78 bd 8b f4 b8 bd
       0.068201885 0.045879155 -0.06060593 -0.09031018
0003b0 1a 6d ef 3c 31 7a 47 bd 4a b1 02 3d f4 71 3e 3d
       0.029226828 -0.048700515 0.031907357 0.046495393
0003c0 6e 5c 83 3b c9 55 ad bc b5 24 ed 3c 2c 2d f7 3c
       0.004008821 -0.02115907 0.028948167 0.030172907
0003d0 bb f9 c8 bc bd e3 61 bd 14 c9 5c bd d8 db 9e bd
       -0.024533143 -0.05514883 -0.0539027 -0.077567756
0003e0 e2 bf 2f 3d 77 e8 be 3c 08 19 89 bd bf e9 26 3d
       0.042907603 0.023304207 -0.066942275 0.04075026
0003f0 4b 6f 9a ba d1 f9 92 bd 16 81 e5 3c 74 58 51 3d
       -0.0011782435 -0.07176555 0.028015655 0.051109746

encoder.attn.k_linear.bias f4 [128]
000000 c1 c8 ce bc 5b c2 d2 3c 0b dd eb bc 2c 4f 93 3d
       -0.025242211 0.025727442 -0.028791925 0.07192835
000010 e0 8f 3d 3c af 1e 86 3d df bb a1 3b 87 54 55 bd
       0.011569947 0.06548821 0.004935726 -0.052082565
000020 d2 49 9a bc aa 44 0e 3d 49 14 82 3d 99 ce ee bc
       -0.018834028 0.034733452 0.06351525 -0.029151248
000030 c7 5d 79 3b 1b a0 a6 3d fd b9 06 bd 40 17 14 bd
       0.003805028 0.081360064 -0.032892216 -0.036154985
000040 8f 3d 8f 3d c0 e2 85 bd c2 79 04 3c b5 0c af bb
       0.06994163 -0.0653739 0.00808567 -0.005342091
000050 11 35 a3 3d 0c 1c cd bb 4a bd ae 3c 76 5b e3 bc
       0.07969106 -0.006259447 0.021330494 -0.027753573
000060 7c 35 2a bd 51 73 02 bd b3 a8 7e bd 3d d3 58 bd
       -0.041554913 -0.031848256 -0.062172603 -0.052935828
000070 ac 09 88 bd b8 53 4c 3d ee 11 aa 3d fe c1 6c 3d
       -0.0664247 0.049884528 0.08304201 0.057802193
000080 9e ef 7d 3d 34 55 7d 3c de 15 8b 3d 31 c3 a3 bd
       0.061996095 0.015462209 0.0679128 -0.07996214
000090 8d 3d 00 bd e8 a4 cc bb 3d 6f ea 3c 29 4d 48 3d
       -0.0313087 -0.0062452443 0.028617496 0.04890171
0000a0 1b 5b 62 bc 9b c0 85 3d 02 ae be 3c cc 87 75 bd
       -0.013815667 0.06530877 0.023276333 -0.05994396
0000b0 9d c8 5c 3c 4a 84 a5 bd 56 b9 b3 3d 18 5c 5a bc
       0.013475564 -0.08081873 0.087755844 -0.013327621
0000c0 6a 5b 93 3c df b8 3a bb 63 4f 4b bd 02 01 4e bd
       0.017987926 -0.002849154 -0.049636256 -0.05029393
0000d0 d4 0c a7 bd 57 a5 c9 3c 03 ac 95 bd 69 31 64 bd
       -0.08156744 0.024614973 -0.07308199 -0.055711184
0000e0 13 7c 47 3d fe 29 48 3b c9 35 27 3d 2b c5 8c 3d
       0.04870231 0.0030542607 0.040822778 0.06873544
0000f0 49 a5 87 bc df 84 b2 bd d0 76 6f bd 25 8c 96 bd
       -0.016558306 -0.087167494 -0.058462918 -0.07350949
000100 0d 97 38 bb 48 4a a0 bd 49 a9 da bc 5f 52 f4 bb
       -0.0028166205 -0.07826668 -0.02669205 -0.0074561085
000110 53 0e 48 3d 84 d7 a4 bd bc d6 eb 3c b3 cb 76 3d
       0.048841786 -0.08048919 0.028788917 0.060252856
000120 14 29 b0 3d d5 ef af bd 37 98 76 3c d8 69 0c bd
       0.08601585 -0.08590666 0.015050939 -0.034280628
000130 42 13 1d bd 89 85 97 bd 04 b6 4a bb 04 d9 0a bc
       -0.038348444 -0.07398517 -0.0030931244 -0.008474592
000140 3d 67 70 3d 4e 88 54 bd 56 d0 a2 bc 53 84 f2 bc
       0.058692206 -0.051887803 -0.019874733 -0.029604113
000150 ef e3 dc 3b bb 41 3b bc 50 9b bd bc f2 d7 ee 3c
       0.006741039 -0.011429246 -0.023145348 0.029155705
000160 2e 56 93 bd 8c 83 27 bd 48 75 2e bd 55 e5 6d ba
       -0.07194172 -0.040896937 -0.042592317 -0.00090750057
000170 68 c2 02 3c 8a 11 87 3c 91 a2 00 bd a7 5b 7b 3c
       0.00798092 0.016487855 -0.031405035 0.015341676
000180 cd a7 1b bd de 94 21 3d fb 87 9d 3b 87 5d 7d 3d
       -0.038001824 0.03944861 0.00480747 0.061856773
000190 09 1d 60 3b 33 dd 53 bb 17 b8 9e bd 70 b2 8d bd
       0.0034196994 -0.003232789 -0.07749956 -0.069188
0001a0 c5 54 11 3d ca 45 60 3d 5f 64 4e bc b3 91 f9 3c
       0.035481233 0.054754056 -0.0125971725 0.030464983
0001b0 d8 50 7d bc c9 c1 1e bd 5b b0 94 ba 04 64 83 3d
       -0.015461169 -0.038759027 -0.0011344062 0.06415561
0001c0 95 d8 f3 3c bd 38 6b bd b5 42 23 bd 31 c5 2b 3d
       0.02976636 -0.057427157 -0.03985854 0.041936103
0001d0 3e 81 a8 3d 21 3f e4 3b f2 1e f9 bb 8f 97 23 bd
       0.08227776 0.0069655334 -0.007602566 -0.03993946
0001e0 c0 02 cf bb 8a 2f 88 bc f1 16 c8 3b 39 b8 3f bd
       -0.0063174665 -0.01662423 0.0061062505 -0.046806548
0001f0 ad 15 8e 3d 6f 9e 62 bd 01 3c 27 bb 29 67 a4 3d
       0.06937728 -0.055326875 -0.0025517943 0.08027489

encoder.attn.v_linear.weight f4 [128, 128]
000000 5f 31 73 ba 54 82 04 bc 5e 83 4a 3d a2 76 0d bd
       -0.0009277071 -0.008087713 0.049441688 -0.034536965
000010 a6 72 88 3d 43 5f 96 bc ab 1d 44 bc ba 9b a2 bd
       0.066624925 -0.018355971 -0.011969964 -0.07939859
000020 d1 35 4f 3d 94 b8 ba bc c0 62 12 bd 68 b8 d4 3b
       0.050588433 -0.022793092 -0.035738707 0.0064917095
000030 51 9e a9 bc dc 09 67 3d 49 d2 4a 3d c2 5d 06 3d
       -0.020705374 0.056405887 0.04951695 0.03280426
000040 63 e7 a8 3d 0e 93 85 bd 93 b4 8c 3c 57 5b 9d 3d
       0.082472585 -0.06522189 0.017175948 0.07683437
000050 f0 81 1d bd ee 9c 07 3d 59 83 e2 3c bd e0 2e bd
       -0.038453996 0.033108644 0.027650522 -0.042694796
000060 16 57 b8 3c 14 7f 83 3d a5 27 14 bd b3 7e 27 bd
       0.022502463 0.064207226 -0.03617062 -0.040892314
000070 39 95 43 3d 56 58 cc bb 87 01 99 3d df 88 26 3c
       0.04774973 -0.0062361164 0.074709944 0.010164469
000080 eb 90 c0 3c e4 3d 73 bc dd 83 63 bd f4 34 9b 3d
       0.023506602 -0.014846299 -0.055545676 0.075784594
000090 b5 f7 38 3d 15 96 60 bd a1 c8 3a 3d 78 55 6f bc
       0.045158107 -0.05483063 0.04560149 -0.01460778
0000a0 c3 06 87 bc 8f 9f 54 b9 dd 0d 89 bd 07 f7 81 3d
       -0.016482716 -0.00020277336 -0.06692097 0.06345945
0000b0 04 dc 0a 3e 88 b2 0d 3d b3 01 31 bd 18 af aa bc
       0.13560492 0.03459409 -0.04321451 -0.020835444
0000c0 f4 16 6b bd 8b 2f 65 bd 36 2c 34 bd d4 f9 85 3d
       -0.057394937 -0.055953544 -0.043987475 0.065417916
0000d0 c0 ab c0 3d 31 55 7a 3d 4f f3 7a bd ec aa 71 3d
       0.09407759 0.0611164 -0.061267193 0.059000894
0000e0 17 48 58 bb 67 01 6d bd 5c fa 2e 3c 7e 59 87 3c
       -0.0033001953 -0.057862666 0.0106798075 0.016522165
0000f0 33 21 a6 bc 4e 7e 28 3d 08 27 05 be fd 59 c3 3c
       -0.020279502 0.04113608 -0.1300317 0.02384662
000100 79 b9 f4 3d a7 0f 8a 3d 5b 7b 60 3d e3 f1 36 3c
       0.119494386 0.06741267 0.05480514 0.011166069
000110 e2 81 76 bd bd 9e c5 bd 62 be 6c bd 7b a6 ee bc
       -0.06018246 -0.096494175 -0.05779875 -0.029132118
000120 4e f4 2f 3d 9c 49 a6 bd 8d 71 1d 3d a3 45 46 bd
       0.042957596 -0.081195086 0.03843837 -0.048406255
000130 f1 b2 88 3d 32 c9 c9 bc c7 8c 82 bd 04 8a 16 3d
       0.06674755 -0.02463207 -0.063745074 0.036752716
000140 48 ff be 3c e0 5a 05 bd 4a b0 87 bd cb 8d 16 bd
       0.023315087 -0.03255737 -0.06625421 -0.036756318
000150 83 c6 cb bd bc 78 26 3d 95 eb db 3c f3 57 6b bd
       -0.099499725 0.040642485 0.026845733 -0.05745692
000160 37 ae 84 3d 4c 5f 30 3d 1c 73 4c 3d c5 20 04 bd
       0.06478541 0.043059632 0.049914464 -0.032257814
000170 62 af 85 3c e1 20 48 3c 6a 3d d2 3c 4e 91 60 bd
       0.01631898 0.01221487 0.02566405 -0.054826073
000180 a9 ee 72 bc e7 de 86 3c c9 ca de bc 40 dd 8f 3d
       -0.014827409 0.01646371 -0.027196305 0.07024622
000190 96 d0 34 bd 7f cd 9b bc 2b de bb 3a 63 0c 67 bb
       -0.044144236 -0.019018887 0.0014333179 -0.0035255186
0001a0 7b 35 9e bb 45 54 de bb 61 f0 8b bd e7 3d 3d 3d
       -0.0048281527 -0.006784948 -0.06832958 0.046201613
0001b0 27 fd c8 3c 61 97 fe bc 3c 5e 10 bb b3 77 3c 3d
       0.024534775 -0.031078042 -0.0022028824 0.04601259
0001c0 e0 0e a7 bc a7 9f dd bd e6 ae 4f bd cb 27 29 3d
       -0.020392835 -0.10821467 -0.050703906 0.041297715
0001d0 9a 88 5a 3d 70 88 83 bd 53 04 3c 3c 73 20 7c bc
       0.05335293 -0.06422508 0.01147564 -0.015388596
0001e0 a2 ce b4 3a b5 f7 23 bd fa bb ae 3d f8 8f 80 3c
       0.0013794492 -0.040031154 0.085319474 0.01569365
0001f0 b0 a7 1d 3d 79 5e 14 bd ac 81 02 bd fd d7 8d 3c
       0.038489997 -0.03622291 -0.031861946 0.017314905
000200 0b 17 44 3d 79 19 bd bd 0c a4 b7 bd f3 8b 43 3d
       0.047873538 -0.09233374 -0.08966836 0.047740888
000210 61 61 13 3d 18 6e 5a 3d 69 d3 8c 3c 62 99 af bc
       0.03598154 0.05332765 0.017190652 -0.021435443
000220 6d b5 95 3d 84 69 ca 3c 50 40 41 bd eb 51 76 bd
       0.07309995 0.024708517 -0.047180474 -0.060136717
000230 4c 80 8b 3c dd 1b b8 bd ba f1 35 bd b2 50 31 bd
       0.01702895 -0.089896895 -0.04441998 -0.043289848
000240 0e 68 bc 3d 8e 81 48 3b 61 af 4c bd 5c 4e cc bc
       0.09199534 0.0030594799 -0.04997194 -0.024939708
000250 22 1d a2 bd e9 5d 8b 3d d3 a0 30 bd 83 f5 a3 3c
       -0.07915713 0.06805021 -0.043122124 0.02001453
000260 6b 74 b7 bc 61 16 98 bd c0 3e b8 bd 53 ba 6a bd
       -0.02239438 -0.074261434 -0.089963436 -0.0573066
000270 63 1f e7 bd b5 cc 5b 3d 9c 04 1d 3d 4b c2 dc bc
       -0.112852834 0.05366202 0.038334474 -0.026948115
000280 44 62 a9 bd 85 43 58 bd 6a cc 52 bd 51 f5 ab 3d
       -0.08270696 -0.052798767 -0.051464476 0.083964
000290 a1 75 4c bd 77 3f 96 bd e0 ad 07 bd 07 99 96 3d
       -0.049916867 -0.07336324 -0.033124804 0.073534064
0002a0 78 77 aa 3d ce 4a 44 3c 61 49 9f bd ad 71 2e 3c
       0.08323568 0.011980725 -0.07777668 0.01064722
0002b0 dd 11 9f bd 03 f8 68 bd af 7c 4e 3d c0 5d 81 bd
       -0.07767079 -0.056877147 0.050411876 -0.063167095
0002c0 fa cf 84 3d a0 bb d5 bb e6 42 8e ba 9c f6 76 3c
       0.06484981 -0.006522611 -0.0010853678 0.015073445
0002d0 d3 80 b1 bd d2 7f 56 3d 41 84 31 3c 15 a1 58 bd
       -0.086671494 0.052367993 0.010834754 -0.052887995
0002e0 e8 a3 c2 bd 72 07 99 bd 29 37 8e 3d 54 f0 9b bd
       -0.09503919 -0.07472123 0.06944115 -0.07614198
0002f0 9e 8e 5e 3d 66 51 a1 3d 32 9b 88 3d e9 0b df bc
       0.05433523 0.07876854 0.06670226 -0.027227359
000300 e6 50 86 3d 60 70 12 bd f9 fb bb bd f7 1e 84 3d
       0.06558399 -0.0357517 -0.09178919 0.064512186
000310 f7 f4 ca bc 1c b1 19 3d d0 ab ba 3c b5 96 8e bc
       -0.024775011 0.03752242 0.022787005 -0.017405847
000320 61 26 4f 3d e2 45 44 3d 83 fd 60 3d 5e 41 8e bd
       0.05057371 0.047918208 0.054929268 -0.069460616
000330 90 66 bb bd 92 49 9b bd 9f 39 d7 3c a0 b0 26 bd
       -0.091504216 -0.07582392 0.026272593 -0.040695786
000340 dc b6 b1 bd 0e 85 c3 3d 00 4b 95 3d eb cb c9 3c
       -0.08677456 0.095468625 0.07289696 0.024633368
000350 c4 9e 67 bc a6 d5 7a 3b 14 b6 18 3d 44 a9 8b 3d
       -0.014136974 0.0038274317 0.03728302 0.06819394
000360 4b 08 89 3d d7 ef 0b 3d a5 c5 6b bc ba 8f 82 3d
       0.06691035 0.034164276 -0.014390384 0.0637507
000370 29 1a 14 bd 16 a9 1e bd 7d 40 6c bd 57 91 c3 3c
       -0.03615776 -0.03873547 -0.05767869 0.023873014
000380 15 50 43 bd 40 e6 fb 3c 0e 40 2e bd 52 db 99 bc
       -0.047683794 0.03074944 -0.042541556 -0.018781338
000390 0f ab b8 bb 6f 71 ca 3d 7f 6a b9 bb 5e 34 25 3b
       -0.005635626 0.09884917 -0.0056584473 0.0025208215
0003a0 3d 72 a5 bc 21 08 94 3d 67 9e 6d bd 41 74 f8 b9
       -0.020196075 0.07228113 -0.058012392 -0.00047388862
0003b0 a0 26 88 bd a9 94 bb 3d 47 4a 7a 3d 45 c5 20 3d
       -0.06647992 0.09159214 0.061105993 0.03925063
0003c0 28 ce 7f 3d 63 d3 34 bd 4b fe d8 3c 81 14 31 3d
       0.062452465 -0.044146907 0.026488444 0.043232445
0003d0 b4 9c 66 bc 94 c7 ef 3c fb 2b 23 3c 92 38 16 3b
       -0.014075447 0.029269971 0.009959216 0.0022921902
0003e0 90 ab 81 bd be 22 64 bd 65 55 a0 bd 1f 01 5e 3d
       -0.06331551 -0.055697195 -0.07828788 0.054200288
0003f0 f0 11 72 3d 8c 93 5f 3d 4e a9 22 bd 6d e8 62 bd
       0.059099138 0.05458407 -0.039712243 -0.05539744

encoder.attn.v_linear.bias f4 [128]
000000 30 e7 18 3d b8 04 89 3d 29 b5 2c 3d 15 eb 51 3d
       0.037329853 0.06690353 0.042164955 0.051249582
000010 64 c6 66 bd 62 33 56 bd 22 84 bc bd ce d8 29 bd
       -0.056341544 -0.052295096 -0.0920489 -0.041466527
000020 ca 31 8f bd 3a 1f a3 3d 49 1d 8c 3d 4d c4 8f 3d
       -0.069919184 0.0796494 0.06841523 0.07019863
000030 37 01 60 bd 7b a1 73 3d bc 65 d3 ba 39 88 9e bc
       -0.05468866 0.05948017 -0.0016128342 -0.019352065
000040 9e 84 be bd 82 0f 37 39 fe f0 08 3d d9 46 69 3c
       -0.093026385 0.00017458017 0.033432953 0.014238083
000050 6f 74 8c 3c 70 d5 63 3d 90 34 b1 3d 91 ec 8e bc
       0.017145364 0.05562347 0.086526036 -0.017446788
000060 39 e8 37 bb 19 bc b9 bc fa f1 f9 3b 7b f7 98 bd
       -0.0028062 -0.0226727 0.007627723 -0.07469078
000070 c3 54 54 3c 0f 10 71 3d 00 90 42 3c bc f6 19 bd
       0.012959662 0.058853205 0.011875153 -0.03758882
000080 5c a6 71 bd 4b 9b 8f 3d 93 b8 ab 3c e3 08 2b 3d
       -0.058996543 0.07012042 0.020962035 0.041756522
000090 0f cd 82 3d 08 ca 6e 3b 7c ea 29 bd 54 cf 56 3c
       0.06386768 0.0036436338 -0.041483387 0.013110954
0000a0 b6 40 04 bd 5a 20 28 3d 1b d5 b3 bd 20 4a 84 bc
       -0.032288276 0.041046478 -0.08780881 -0.016148627
0000b0 c6 74 6b 3d c9 69 8e 3d a3 f2 8d 3a 68 12 99 3d
       0.05748441 0.06953771 0.0010829758 0.07474214
0000c0 df 56 b1 3b 74 c4 90 3d 00 f0 13 bd 29 7d 88 bd
       0.005411967 0.070687205 -0.036117554 -0.066644974
0000d0 d5 00 6e 3c 6f 6c 86 3d 12 05 ad 3d 4d 06 20 3c
       0.014526566 0.06563651 0.08448233 0.009767127
0000e0 28 03 0a 3d e0 ef 47 bd ac aa 38 3d b8 b7 a0 bc
       0.033694416 -0.048812747 0.04508464 -0.019618854
0000f0 51 e1 fd bc d7 00 dd 3c cf c7 09 bd 7f 50 9e bd
       -0.030991228 0.02697794 -0.033637818 -0.07730197
000100 3c ed 62 3d 7b df a9 bd 7d e8 68 3d ad 56 23 bd
       0.055402026 -0.08294579 0.056862343 -0.039877582
000110 6e dc a5 bc 92 39 8a 3d 25 94 1f 3d 1e 6d 84 3d
       -0.02024671 0.06749262 0.03895964 0.06466125
000120 3f 40 44 3d 5c 2b 8b 3d f9 ee 10 bd 35 91 a6 bd
       0.047912832 0.067953795 -0.035384152 -0.08133165
000130 ef b8 46 3d ba 96 84 bd d1 a6 52 bc 4a 52 5e 3c
       0.04851621 -0.06474061 -0.012857155 0.013569424
000140 bd f7 df 3c bf d2 ba 3d 97 86 ad bc fd 7e 80 3d
       0.02733981 0.09122228 -0.021182342 0.06274221
000150 b1 72 43 3d e2 3f 37 3d e1 b8 87 3d 08 15 77 bd
       0.0477168 0.044738658 0.0662706 -0.06032279
000160 0a 99 05 bb c6 50 25 bd 66 c7 f1 bc 9c be 42 bd
       -0.0020385408 -0.040360235 -0.029514026 -0.04754506
000170 3b 1c 1f 3b 1c 8e 91 3d c0 b2 00 bd e9 81 a9 bc
       0.0024278301 0.07107183 -0.03142047 -0.020691829
000180 7d 3c 58 3d 8a 55 44 3d c6 0a 36 bd 7e db 35 3c
       0.05279206 0.04793314 -0.044443868 0.011099694
000190 22 37 0a bd 76 a8 a9 bc bf 03 84 3d b7 d8 b3 3d
       -0.033743985 -0.020710211 0.06446027 0.087815695
0001a0 89 8b 1a 3d 41 c7 3f 3d a7 dc 1a bc d5 e0 97 3c
       0.037730727 0.046820883 -0.009452022 0.018539825
0001b0 c4 8f 9a 3d 18 0f 5f bd ff c6 2d bc 59 d5 55 3c
       0.07546952 -0.054457754 -0.010606526 0.013051354
0001c0 9c 27 c2 3c 65 38 95 3d 5a 7a 5a 3d bd 06 30 3d
       0.023700528 0.07286147 0.05333934 0.042975176
0001d0 48 79 bc bb 3f 28 a4 bd 51 43 a6 3d 27 ae 7a 3d
       -0.0057517625 -0.08015489 0.08118308 0.06120124
0001e0 c6 3e 2e 3c 7c 47 89 3d 5a ac 4c bd 75 6b 2f bd
       0.010635084 0.06703088 -0.049969055 -0.04282709
0001f0 95 d2 37 3a 56 d8 7a bd 33 e7 a5 3c c3 6b a6 bd
       0.0007012275 -0.06124147 0.020251846 -0.08126023
